K230/train/arrownet_model.pth (torch, 70657 bytes, 38 tensors)

features.0.weight f4 [16, 1, 3, 3]
000000 20 74 b2 be 24 c3 7c 3e fc c8 6d 3e b9 75 a5 3e
       -0.3485422 0.24683815 0.232212 0.32316378
000010 04 ce b5 3d a8 57 0d be d6 7b 3a 3e eb 47 38 3e
       0.08877185 -0.1380297 0.18211302 0.17996185
000020 9c 5a 5e be c5 eb 79 be c0 62 4f be 99 bc 15 3e
       -0.21714252 -0.24406345 -0.20252514 0.14622726
000030 8f fd 1d 3e b4 6b 9e be 59 e7 94 3e c0 93 95 3e
       0.15428756 -0.30941546 0.29082754 0.29214287
000040 4f 2d 37 3d d8 c7 84 3e 67 24 73 3e 70 7d 0f be
       0.044720944 0.2593372 0.23744355 -0.14012694
000050 6d bd bf bd 33 df ef bd a6 f2 11 3e 81 59 8a 3e
       -0.09362302 -0.11712494 0.1425272 0.2702141
000060 1d 28 c1 3d b1 f8 33 be 65 e6 62 3e 3d cf 16 3e
       0.09431479 -0.17575337 0.22158201 0.14727493
000070 ed 8b 4a be 4e 20 af 3e d1 b4 5e 3e c2 d4 7a 3e
       -0.1977994 0.34204334 0.21748663 0.24495223
000080 c2 c4 77 3e 8e 85 b4 be c9 65 53 3c 02 60 66 be
       0.24196151 -0.35258144 0.012902685 -0.22497562
000090 38 0f 80 be a9 6e 47 bd d1 fe 77 3e 5e 07 4b bd
       -0.2501161 -0.048689518 0.24218298 -0.049567573
0000a0 44 f5 43 be f0 32 3f be 15 e8 bc bd 2f 68 5e be
       -0.1913653 -0.18671775 -0.09223954 -0.2171943
0000b0 7c c8 98 bc 7b f8 0d 3e 62 1b 26 3e 66 f1 80 be
       -0.018650286 0.13864319 0.16221383 -0.25184172
0000c0 12 00 49 bd 1f 54 65 3e c9 d6 b6 3e 2f 83 84 be
       -0.049072333 0.22395371 0.35710743 -0.25881335
0000d0 9d f6 2e be 09 1e b4 3e 9b 34 4f 3e df eb 88 3d
       -0.17086263 0.35179165 0.20234911 0.06685614
0000e0 f7 9b 2b be 00 a8 ec 3d a5 f5 91 be 8d 73 46 be
       -0.16758715 0.11555481 -0.28507724 -0.19380017
0000f0 db 6c 93 be 45 40 74 3e 05 f4 a6 3d 6d 6d 32 3e
       -0.28793988 0.23852642 0.08152012 0.17424555
000100 dd 63 da bd 30 68 fa 3d 57 3b 8c be 03 46 ae 3e
       -0.10663579 0.122269034 -0.27389023 0.3403779
000110 0d be 8e 3e 55 bc 1f 3d d7 ed 74 3e a6 1a 86 3e
       0.27879372 0.038997967 0.23918854 0.26192206
000120 0a a2 a7 be 90 2a 22 3d 1b ff 58 3e f7 4b 62 bd
       -0.32740813 0.039591372 0.21191065 -0.055248227
000130 6e af f8 bd a4 b0 ab be 2b 8b 37 3e 53 2a 56 bc
       -0.121428356 -0.33533204 0.17924182 -0.013071614
000140 b5 68 0c be 88 81 1a 3e 96 8a 6b 3d b8 f5 c6 bd
       -0.13711818 0.15088475 0.057505213 -0.09714836
000150 d0 5b 0f be ce 90 90 be 30 52 ac 3e c6 04 76 be
       -0.13999867 -0.28235477 0.33656454 -0.24025258
000160 f8 a0 0d 3e a7 01 e4 3d e7 3e 50 be 5c 80 ae be
       0.13830936 0.11133128 -0.20336495 -0.34082305
000170 c5 2d c3 3d 46 9b bd bd 7f a8 9c 3e 7d 8e 69 3e
       0.09530214 -0.09258132 0.30597302 0.22808261
000180 62 ab 0e 3e e1 bd f4 bd 28 22 aa 3e 4d 9b bd 3d
       0.13932565 -0.11950279 0.33229184 0.09258137
000190 f6 f0 62 3e 8d a1 ff 3d 2f 03 2f be 23 e5 c6 3d
       0.22162232 0.12481985 -0.17091058 0.09711673
0001a0 9f 87 75 3e d6 c3 20 ba 6b b7 b6 3d 6c e5 56 be
       0.23977517 -0.00061326975 0.08921703 -0.20985955
0001b0 d6 08 56 be 21 d8 7b 3e 36 fc 43 3e c7 96 16 3b
       -0.20901808 0.24594165 0.1913918 0.0022978054
0001c0 7b d9 a2 3c 93 ae cb bd 71 07 ac be 98 40 80 3e
       0.019879093 -0.09945407 -0.33599427 0.2504928
0001d0 1a 72 6b be 0b 1b b2 3e 63 41 92 3e c2 47 90 be
       -0.22992745 0.34786257 0.2856551 -0.28179747
0001e0 d1 54 fd bd 73 d6 28 3e a8 bb f9 bd b4 6f 2e 3e
       -0.12369693 0.16488056 -0.12193996 0.17034799
0001f0 b1 2a 08 3d 9f 6a 0e 3e 2b 77 ac bd 9e 41 61 be
       0.03324384 0.1390786 -0.08421167 -0.21997687
000200 ed 63 fb bd e8 b1 49 3e 8a 0e ab bd 59 c2 2f 3e
       -0.12274919 0.19696772 -0.083523825 0.17163981
000210 cb e7 24 3e 7d 32 6e be 06 fc 70 3e f0 12 5a 3e
       0.16104047 -0.23261447 0.2353364 0.21296287
000220 2f 26 e8 bd 0f b7 0d 3d cc 36 ec bd 22 c2 5f 3d
       -0.11335408 0.034598406 -0.11533889 0.0546285
000230 58 20 85 be 42 d1 43 3e d1 e1 dd bd d9 73 97 be
       -0.2600124 0.19122794 -0.10834087 -0.29580572

features.0.bias f4 [16]
000000 30 22 1d be 3d d3 94 3d 1d 95 a2 bd d2 a6 05 3c
       -0.15345073 0.07266853 -0.07938597 0.008157449
000010 24 4c 09 3d aa 6f a3 3b 1d c3 8d be ed b1 73 be
       0.03351988 0.0049876766 -0.27687922 -0.23798342
000020 6a 71 79 be f4 0a 1b be 75 ec 8b be 7f 26 00 3e
       -0.2435967 -0.15140897 -0.2732884 0.12514685
000030 b7 a8 61 3e 94 68 1d 3e 04 3b 25 be 4e 6a ea 3d
       0.22037016 0.15371925 -0.16135794 0.11446057

features.1.weight f4 [16]
000000 fb 90 6a 3f e8 32 7b 3f e6 8b 7d 3f 91 d6 6e 3f
       0.9162747 0.9812455 0.99041593 0.9329615
000010 c6 ae 7c 3f e2 20 7b 3f fd 4a 69 3f f6 c0 64 3f
       0.98704183 0.9809705 0.9113005 0.89356935
000020 d7 46 80 3f e1 b6 6c 3f 70 45 80 3f 13 48 65 3f
       1.0021619 0.9246655 1.0021191 0.895631
000030 2f 30 76 3f 06 a8 6b 3f 39 c3 68 3f 7e 36 7e 3f
       0.9616727 0.9205326 0.90922886 0.993019

features.1.bias f4 [16]
000000 2a 7d 66 3d 5d 7f e4 3c ad 4c 96 3c c5 9f fd bc
       0.05627171 0.027892763 0.018347109 -0.030959973
000010 a9 00 c3 bc d2 9e b7 3c c2 22 73 bd 58 da 6a 3d
       -0.023804026 0.022414599 -0.05935932 0.057337135
000020 99 fb 6f 3c 84 08 42 bd d8 d0 88 3b 96 27 5e 3d
       0.014647388 -0.047371402 0.0041752867 0.05423697
000030 c7 f4 eb bc 5a 1c 43 3d 02 46 4c bd b5 f0 41 bc
       -0.028803242 0.04763446 -0.049871452 -0.011837174

features.1.running_mean f4 [16]
000000 8b bd cb be c8 22 fc bd 72 da 8c be c0 34 39 be
       -0.39793047 -0.123113215 -0.2751041 -0.18086529
000010 9e ad ca 3e 2b 82 63 be 5f a3 2f be e5 a0 38 bf
       0.39585584 -0.22217624 -0.17152165 -0.72120506
000020 26 03 96 3b 24 c5 2b be 0c 0e df be b2 b2 b5 bd
       0.004578012 -0.16774422 -0.43565404 -0.08871974
000030 7f 2c 95 3e 22 24 e9 bd 09 e3 31 be a6 8e 99 3e
       0.2913551 -0.11383845 -0.17371763 0.29991645

features.1.running_var f4 [16]
000000 1b db 8d 3c 46 40 75 3c 76 ae 1f 3c 2d 7b 70 3c
       0.017316392 0.014968937 0.009746185 0.014677805
000010 7c 60 f9 3c fa 6f 90 3c c1 96 b4 3b ab 47 59 3d
       0.030441515 0.01763152 0.0055111353 0.053046864
000020 2a b8 83 3c bc 70 8b 3b 17 c6 70 3c 05 1c 65 3c
       0.016079027 0.0042553823 0.014695666 0.013983731
000030 f6 d2 da 3b 85 ea a3 3c 93 b3 99 3b bd 3d 49 3c
       0.0066779805 0.020009289 0.0046905964 0.012282786

features.3.0.weight f4 [16, 1, 3, 3]
000000 a9 12 33 3e 4d a1 b1 3d 3b 47 9e be 00 df 75 3e
       0.17487587 0.08673344 -0.3091372 0.24010849
000010 ca 6c 3d 3e 50 09 a8 3e 16 24 71 3e a7 75 66 bd
       0.18498531 0.32819605 0.23548922 -0.056264546
000020 81 08 9e be b0 c6 66 3c 3a be 00 3e c9 49 87 be
       -0.30865863 0.014085457 0.12572566 -0.2642348
000030 7d 21 96 be d5 cc 83 be 15 38 4c be cf 1a b6 3d
       -0.29322425 -0.25742212 -0.19943269 0.08891832
000040 b6 b7 d0 bd 74 88 82 be 00 2c 09 be 00 80 0c 3e
       -0.1019129 -0.2549473 -0.13395691 0.13720703
000050 6c 28 67 be 17 d9 a1 3e a3 c8 09 3e 55 f4 17 be
       -0.22574013 0.3161094 0.13455443 -0.14839299
000060 a5 ab 16 be db 40 44 3e f1 92 04 bd 0d 76 6e be
       -0.14713915 0.19165365 -0.032366697 -0.2328722
000070 da b1 a6 be a3 7d 17 3e 47 10 50 3e cf b2 80 3d
       -0.32557565 0.1479402 0.2031871 0.06284105
000080 da b4 c6 bd 82 6c 27 3d 07 01 84 be 9b 54 65 3e
       -0.097024634 0.040874965 -0.25782034 0.22395556
000090 4f 3b 50 be da 95 52 bd 9c 63 79 3e bd fd a1 3d
       -0.20335124 -0.05141244 0.24354404 0.07909725
0000a0 9d a5 2e 3e 28 aa 8f be 2c 2f 71 bc 86 ad 39 be
       0.17055364 -0.28059506 -0.014720719 -0.181326
0000b0 41 a0 85 3e b9 dc e8 bd 51 38 c6 3d 8d cb 0f be
       0.26098827 -0.113702245 0.0967871 -0.14042492
0000c0 b4 12 80 be 76 a0 9a bc 79 a1 df bd a5 23 31 3d
       -0.2501427 -0.018875342 -0.1091947 0.043246884
0000d0 04 8c 3d 3e 5f f0 9b 3e 61 32 27 be f9 4a 2b 3e
       0.18510443 0.30456826 -0.16327812 0.16727819
0000e0 61 28 49 3d c6 3b 9a be 3f a8 90 be 25 99 a9 3e
       0.049110774 -0.3012373 -0.28253362 0.33124653
0000f0 a9 38 b7 3e 0c cc 88 be 62 02 46 be 2a ca 31 be
       0.35785416 -0.26718175 -0.19336846 -0.17362276
000100 c3 91 26 3e cb 01 0b bc f5 ca 6c 3e 68 1f ea bd
       0.16266541 -0.008484314 0.23124297 -0.114317715
000110 a7 fe 2a 3e 13 1b ed bd 43 61 b1 3e e2 cb a7 3c
       0.16698705 -0.115774296 0.34644517 0.020482961
000120 cb 85 28 be 0e 1d f8 bd 06 51 85 3e a2 5d 29 be
       -0.16457288 -0.12114917 0.26038378 -0.16539624
000130 5e 9b 55 be 96 3a 69 bd 54 ff a2 be 9e ea 8e be
       -0.20860049 -0.056940638 -0.31835425 -0.27913374
000140 9c ee 6a bd bc b2 bd be c0 5d ed 3d 43 4b c7 bc
       -0.057356462 -0.37050426 0.11590147 -0.02432788
000150 18 4c 8a bd 97 a2 1f be e5 07 d2 bd 96 2d 84 3e
       -0.06752795 -0.15589367 -0.10255412 0.2581603
000160 58 fa 98 be f4 19 2d 3d a4 d5 9d 3e a9 27 95 3b
       -0.29878497 0.04226108 0.30827057 0.004551847
000170 da 5d 9b 3c e5 97 08 3e 37 d6 a9 3e 22 8c 07 3e
       0.01896565 0.13339193 0.33171245 0.1323705
000180 7b cd 4f 3e 57 5d d9 bd a8 f4 c8 3d 5a 29 36 be
       0.20293228 -0.10613506 0.098122895 -0.17789212
000190 ce 4f 74 3e 45 df 97 3b 6e 8f 55 be f4 19 04 3e
       0.23858568 0.00463477 -0.20855495 0.12900525
0001a0 7d 7a 47 3e 52 21 9e 3c 8d 2b 8a 3e ef ee 70 3e
       0.1948032 0.019302998 0.26986352 0.23528646
0001b0 fc 30 69 3e 34 27 13 3e 8e d4 0b be 79 bb ff 3d
       0.22772592 0.14370424 -0.13655302 0.124869294
0001c0 30 a5 8a be 25 5b 18 3e 1c 76 1d be 43 6d 03 3e
       -0.27079153 0.14878519 -0.15377086 0.12834649
0001d0 65 10 5d be 34 63 b2 bd 5c 23 2a 3e e6 e7 09 be
       -0.21588285 -0.08710328 0.16615051 -0.13467368
0001e0 0c 37 9f 3e 59 6a 3c 3e 94 98 30 bd fd 8b 88 be
       0.31096685 0.18399943 -0.04311426 -0.26669303
0001f0 2d 82 5e bc 3c 16 2e be 73 1e ee 3d 6c 73 3b be
       -0.013580841 -0.17000669 0.116269015 -0.18305749
000200 57 46 9b be 1c 4b 24 3c 7e 93 83 be 61 6f b7 3b
       -0.30327103 0.010027673 -0.25698465 0.005597994
000210 18 5e b2 be c4 7d ed 3d 14 90 3d be 39 a1 00 be
       -0.34837413 0.115962535 -0.18511993 -0.12561502
000220 86 87 5a be ee 34 27 be 85 94 cf 3d 81 08 70 be
       -0.2134076 -0.16328785 0.1013575 -0.23440744
000230 f3 f9 9e be 79 c2 89 bd 6d f7 4c be c7 6d 59 3e
       -0.3105007 -0.06726546 -0.2001626 0.21233283

features.3.1.weight f4 [16]
000000 40 b4 80 3f 8c 2d 88 3f 4e 2a 80 3f 2e c5 7b 3f
       1.0055008 1.06389 1.001291 0.9834775
000010 ae c3 7c 3f 58 47 7a 3f 65 6f 70 3f 2e c9 82 3f
       0.98736084 0.9776511 0.93919975 1.0217645
000020 e9 13 82 3f 2d 3d 78 3f 8a fa 83 3f 19 85 80 3f
       1.0162326 0.96968347 1.0310833 1.0040618
000030 16 6a 74 3f e9 40 81 3f 77 96 82 3f b5 ba 84 3f
       0.95474374 1.0097934 1.0202168 1.0369478

features.3.1.bias f4 [16]
000000 fb 56 83 3d 69 70 73 3d 1f e4 9f 3c 73 86 b7 bc
       0.064130746 0.059433375 0.019517956 -0.022402978
000010 c0 ae 37 bd f7 73 d6 bc 66 64 28 bd 55 9d 9e 3d
       -0.04484439 -0.026178343 -0.041111372 0.077448525
000020 05 45 3c 3d 98 18 86 bc 50 e7 19 3d 88 a4 61 3c
       0.04596426 -0.01636915 0.037574112 0.013772137
000030 0a 83 88 bd b7 aa f8 bb 0b 27 bf 3c ce c1 8a 3d
       -0.06665619 -0.00758871 0.023334047 0.067752466

features.3.1.running_mean f4 [16]
000000 a5 34 4d 3e dd 4e d4 be ed ee 55 3d ac 23 65 bd
       0.20039614 -0.41466418 0.05222981 -0.055942222
000010 9d 89 27 3c 70 55 c4 3b ed 6d c0 bd b4 f8 3d 3e
       0.010225681 0.0059916303 -0.09395967 0.18551904
000020 da 16 d5 be 93 93 1e be 25 b0 c1 3e 49 a0 7b 3e
       -0.41618997 -0.15485983 0.378297 0.24572863
000030 88 6d af bb 8f 03 99 3c 03 27 72 be 1d e3 b8 be
       -0.0053536333 0.018678455 -0.23647694 -0.36110774

features.3.1.running_var f4 [16]
000000 cd 0b 2b 3e da 0f a0 3e c3 5a 88 3d f4 15 9c 3d
       0.1670372 0.31262094 0.066579364 0.07621375
000010 12 04 20 3c 7e 23 82 3d 31 ee 85 3d e9 a9 b4 3d
       0.009766595 0.06354426 0.06539572 0.0882147
000020 44 2c 9b 3e 3f 7a ef 3d e5 e0 7c 3e 26 46 2a 3e
       0.3030721 0.116932385 0.24695165 0.16628322
000030 d2 f5 f5 3c 69 45 45 3d 01 cb c0 3d 3e d5 3f 3e
       0.030024443 0.048161898 0.0941372 0.18733689

features.3.3.weight f4 [32, 16, 1, 1]
000000 dc e0 87 3d 4c 83 a4 be b0 8e 0f 3e 76 af 20 3e
       0.066346854 -0.32131422 0.14019275 0.15691933
000010 03 cd 93 3b 36 76 19 3e d9 5f 33 bd 1d 4c 61 3e
       0.0045105233 0.149865 -0.04379258 0.22001691
000020 0f 54 17 bd 49 64 e2 bc 6a 86 6f 3e ff f8 0d be
       -0.0369454 -0.02763571 0.23391119 -0.13864516
000030 d0 dd 97 bd d0 d2 90 3c 4f 30 36 3e 3d b8 11 bd
       -0.07415354 0.017678648 0.17791866 -0.035576094
000040 78 ff 77 be dd 33 61 3e d4 dc 9d be 4b 66 54 bd
       -0.24218547 0.2199244 -0.3083254 -0.051855367
000050 67 f0 61 be 1e 31 c0 bd 78 87 61 3d 78 d7 0e 3e
       -0.22064362 -0.09384368 0.055060834 0.13949382
000060 98 f1 87 bd d7 bc f6 3d e1 38 00 3e e3 9e 7a be
       -0.06637877 0.12047737 0.12521698 -0.24474673
000070 cc 01 cc 3d d4 da 91 bd 73 28 25 3e 84 c3 5c be
       0.0996128 -0.07121816 0.16128711 -0.21558958
000080 a0 e3 fe 3d 88 d9 22 bd 91 aa 08 bd 9f b8 26 3e
       0.1244576 -0.039758235 -0.03336579 0.16281365
000090 db 4d 4f 3e 94 34 41 bc 99 fc 97 3d 51 52 8b 3d
       0.20244543 -0.011792321 0.07421226 0.0680281
0000a0 a2 35 f5 bd f6 ef b0 3d a4 db 33 be 72 11 7a 3e
       -0.1197312 0.08639519 -0.17564255 0.24420717
0000b0 e4 f3 1a be 75 ca 78 bd f6 d4 b6 bd 7d 8c 19 be
       -0.151321 -0.060739953 -0.08927338 -0.14994998
0000c0 a4 2f 5e 3e 22 13 39 be dd c3 6b 3e 69 90 35 be
       0.21697861 -0.18073705 0.23023935 -0.1773087
0000d0 74 88 c8 3c 01 1d 4a 3b 1e 5d 5c bd 3d 05 34 be
       0.024479128 0.0030840042 -0.05379974 -0.17580123
0000e0 d0 ff de bc 6a a1 25 be c3 45 19 be 80 c4 cd bd
       -0.02722159 -0.16174856 -0.14968018 -0.10047245
0000f0 94 c9 4f 3e 1d 81 0a 3e 71 ab ab bc 8e 4b b8 bd
       0.2029174 0.13525815 -0.020955773 -0.08998786
000100 11 20 87 be 50 0e 5f be c6 4c 2a 3d af fe dc 3d
       -0.26391652 -0.21782804 0.041577123 0.107907645
000110 d3 4d 77 3e d4 8e 96 bd 46 17 0a bd bf 85 a2 bd
       0.24150781 -0.07351461 -0.0337136 -0.07935666
000120 72 08 65 be 67 e0 6c be 2f 73 5b be 35 1d 01 be
       -0.22366503 -0.23132478 -0.21430658 -0.12608798
000130 a9 4d f1 3d d4 06 8b be 83 34 f1 bd 80 c8 4d 3d
       0.117823906 -0.27153647 -0.11777594 0.05024004
000140 ae 7a 72 be 0e c4 4b be 57 05 bf 3d 5e 9b d2 3d
       -0.23679611 -0.19899008 0.0932719 0.1028354
000150 f1 6a 3b be 0b 4d 4c 3e 84 ce a2 bc a4 44 23 bc
       -0.18302514 0.19951265 -0.019873865 -0.009965096
000160 ff ae a0 bd 94 aa 1b 3e e4 a6 8e bc fe f3 b4 bd
       -0.07845878 0.15201789 -0.017413564 -0.088356
000170 8d cf 43 3e 85 5f 87 be ac 54 7c 3e 9c 08 1a be
       0.19122143 -0.26440063 0.24641675 -0.15042347
000180 bb 63 68 bc 9d 18 0b 3e d0 c6 00 3e 1f b4 5c bd
       -0.014183934 0.13583608 0.12575841 -0.053882714
000190 5f 43 1b be ec 6a 19 be f8 40 30 3c 02 78 61 bc
       -0.15162419 -0.14982194 0.010757677 -0.013761522
0001a0 6f 27 37 3e 8a fd 8c bd a4 cf 96 3e cc da 38 3d
       0.17886136 -0.06884296 0.29455292 0.045130536
0001b0 44 6b 07 bd 0c c9 2c be 3c 18 08 be 5f 3c 85 bd
       -0.03306128 -0.16873568 -0.13290495 -0.065056555
0001c0 40 fa 46 3e 45 7c b3 bd 76 f0 64 3e ce ee 82 bd
       0.194314 -0.08763937 0.22357354 -0.06393205
0001d0 6c cd b3 3d fb 57 cc 3d d5 3d 17 3e d1 e1 5e bd
       0.087794155 0.099777184 0.14769681 -0.054414574
0001e0 d6 71 85 bd 0c 43 c9 3c d5 9d 33 be 41 f3 c3 bd
       -0.06515853 0.024568103 -0.17540677 -0.095678814
0001f0 0b 5f 45 3e ca b7 39 be f8 7b 5e be 34 b2 2b be
       0.19274537 -0.18136516 -0.21726978 -0.16767198
000200 58 93 62 be f5 8b dd bd 26 d4 26 3d 66 fa fd 3d
       -0.2212652 -0.1081771 0.040729664 0.12401275
000210 6c 8f d8 bd 6b 89 93 3d 44 27 26 be f3 25 18 3e
       -0.105742306 0.07203945 -0.16225916 0.14858226
000220 6f 05 bd bd 95 ec 14 be d6 1f 8d 3e 6c 00 b9 bd
       -0.09229552 -0.14543374 0.2756335 -0.090332836
000230 af 9e e3 bd 40 2f 32 3e b7 45 f6 bd 00 00 77 be
       -0.11114251 0.17400837 -0.12025016 -0.24121094
000240 62 04 68 3e 77 8b c1 3d 95 3b 22 3e de 54 86 bd
       0.22657922 0.09450429 0.15843041 -0.06559156
000250 13 62 46 bc 16 a9 32 3e b2 19 12 3e 93 6c e0 3d
       -0.012108344 0.17447314 0.14267614 0.10958209
000260 e9 06 78 3d 5d b3 a4 bd 6a 82 82 3b 8f 5c 4b be
       0.060553465 -0.08042023 0.0039828317 -0.19859527
000270 31 7a 25 be 98 ce 88 bd 24 54 33 be b6 31 71 be
       -0.16159894 -0.0668003 -0.17512566 -0.2355412
000280 fa 3a 62 be 0f a2 04 3d 20 75 85 bd 49 3a 59 be
       -0.2209281 0.032381114 -0.065164804 -0.2121364
000290 84 f5 13 bd 01 16 ab 3d ee 0a 4e bd f6 32 0b be
       -0.036122814 0.08353806 -0.050303392 -0.13593659
0002a0 50 f5 43 be f9 68 b9 3d fc 78 12 bd 31 4c ee bc
       -0.19136548 0.09053225 -0.03575991 -0.029089065
0002b0 41 ba 01 be 8b 72 48 3e 9d e6 90 bd 25 81 6b be
       -0.12668706 0.19574945 -0.07075236 -0.22998483
0002c0 24 af 40 3e 37 f8 8f 3c ac 70 3b be 9e 0d 64 be
       0.18816811 0.017574413 -0.183047 -0.2227082
0002d0 3e 97 fb 3c 79 63 65 be c9 86 30 be 2f 83 68 3e
       0.030711766 -0.22401227 -0.17238916 0.22706293
0002e0 04 44 b6 bd 36 a4 90 3d 8a 4c a4 3c 49 8d b7 3d
       -0.08899692 0.07062571 0.020056028 0.08962495
0002f0 77 f6 1a be 1d 70 80 be 37 9e 73 3e b9 dc 80 3e
       -0.15133081 -0.25085536 0.23790823 0.25168398
000300 a6 59 6e be 80 09 3f 3e e1 13 5e 3e 72 6d a5 3b
       -0.23276386 0.18655968 0.2168727 0.0050484473
000310 09 f7 48 be 96 74 6d 3e e4 41 be bd a2 d6 58 be
       -0.19625486 0.23189005 -0.092899114 -0.21175626
000320 90 2a 76 be 21 12 0b bd 3e 8b 96 3d 0b 84 08 bd
       -0.24039674 -0.033952836 0.07350777 -0.03332905
000330 87 90 a3 3d 56 e0 41 3e fb f7 8c bd 2c 43 6d be
       0.07986551 0.18933234 -0.06883236 -0.23170155
000340 83 73 15 be f6 d8 23 3e 63 68 af 3b 47 26 00 be
       -0.14594845 0.16000733 0.00535302 -0.12514602
000350 48 a6 14 bd 00 54 81 3e 5f 3c 04 be b8 26 48 3e
       -0.03629139 0.252594 -0.12913655 0.1954602
000360 3d 5b 21 3e fd 12 25 3e 73 d2 8e 3d 5b b5 15 be
       0.15757461 0.16120525 0.06973734 -0.14619963
000370 ab 09 38 be 02 a0 bf 3d 34 3b 29 be 4d 87 c2 3d
       -0.17972438 0.09356691 -0.1652649 0.09498463
000380 a1 2d bf bd 80 cc 77 be d5 83 59 3d db 41 52 3c
       -0.09334875 -0.24199104 0.05310424 0.012833084
000390 d4 42 04 be 17 d7 fd 3d 0a 08 07 be 41 c4 4a 3c
       -0.12916118 0.12394541 -0.1318666 0.012375892
0003a0 8b 54 bd bd 5c 06 60 3e 35 29 86 3e 48 ba ec 3d
       -0.09244641 0.21877426 0.26203313 0.11558968
0003b0 12 0d 45 bd df b3 0b be 55 56 26 bd b1 55 a5 3d
       -0.048108168 -0.13642834 -0.040609676 0.08072985
0003c0 7a c2 34 3e bb 92 a8 3c 86 b8 03 3e f4 26 bb bc
       0.17652312 0.020577779 0.12863359 -0.022845723
0003d0 09 a2 3c 38 d8 e9 18 3e ba b6 0c 3e 53 2b e6 bd
       4.49736e-05 0.14932954 0.1374158 -0.11238732
0003e0 66 ad cc bd 92 f1 28 3c b0 a3 76 3e 24 9c 87 3d
       -0.099940106 0.010311501 0.2408588 0.06621578
0003f0 db ab 68 be ef ae a6 bd be 7e 4a bb 13 4c 52 be
       -0.22721808 -0.08138835 -0.0030898298 -0.20536833

features.3.4.weight f4 [32]
000000 24 a2 58 3f f9 ad 7c 3f b5 0b 80 3f 0c 97 63 3f
       0.84622407 0.9870296 1.0003573 0.88902354
000010 80 d2 76 3f 25 b0 75 3f 0c f9 74 3f fd 42 81 3f
       0.9641495 0.959719 0.95692515 1.0098568
000020 2a c8 78 3f 3e a6 80 3f 3d e9 7d 3f 83 90 67 3f
       0.97180426 1.0050733 0.9918402 0.9045488
000030 a6 84 78 3f 48 a0 68 3f 03 3e 80 3f 53 19 7e 3f
       0.97077405 0.9086957 1.0018924 0.9925739
000040 ba be 7b 3f 6e b0 7c 3f 83 0f 80 3f c8 ff 80 3f
       0.983379 0.9870671 1.0004734 1.0078058
000050 a5 e6 5c 3f 73 26 7f 3f 07 72 7d 3f b7 10 75 3f
       0.86289436 0.99668044 0.99002117 0.9572863
000060 84 74 72 3f 83 b0 62 3f fa b3 64 3f 2a 02 7f 3f
       0.9470904 0.88550586 0.8933712 0.9961268
000070 72 14 81 3f 88 5f 81 3f ff 51 62 3f a0 35 6e 3f
       1.0084364 1.0107279 0.88406366 0.93050575

features.3.4.bias f4 [32]
000000 e2 d1 d5 3d 83 b7 be 3c 3c f3 b7 b9 7d 38 6e bd
       0.104404226 0.023280865 -0.00035085704 -0.05815934
000010 97 9f b9 3c 6f bd fa bc 89 08 12 3d 38 7d 60 ba
       0.022659106 -0.030607907 0.03565267 -0.0008563581
000020 67 bb ee 3c c3 b6 a4 bb 4d 03 02 3c 17 08 6b 3d
       0.029142095 -0.0050266697 0.007935357 0.057380762
000030 99 cb e0 bc 3a ec 40 bd 4b 24 b9 bb eb 3b 40 bc
       -0.027440833 -0.047100283 -0.0056500784 -0.011733036
000040 05 c2 a3 bc d9 a8 5c bc e7 4f 09 bc 8c 9b 77 3b
       -0.019989977 -0.013467991 -0.008380867 0.0037781922
000050 0d 88 bb 3d 6e 15 4e 3c 2e 31 6a bc 95 fc fe 3c
       0.09156809 0.012578351 -0.014293952 0.0311263
000060 5e c1 10 3d 8b 81 88 3d 5e 69 7d 3d 89 6e 39 bc
       0.03534066 0.06665333 0.061868064 -0.011317858
000070 bc 29 af 3b 33 f4 38 3b 20 3c 79 bd c7 4e 4a bd
       0.0053455513 0.0028221726 -0.060848355 -0.049391534

features.3.4.running_mean f4 [32]
000000 87 4e 21 3e af 73 43 be 33 7e f9 bb cb 91 15 be
       0.15752612 -0.19087099 -0.007613921 -0.14606397
000010 f6 60 03 bf 25 87 0f be 15 ce db 3c a3 87 fe bd
       -0.51319826 -0.14016397 0.026831666 -0.124282144
000020 27 f9 62 be af a6 be bc 64 d5 c7 be b3 1e 11 3d
       -0.22165357 -0.02327284 -0.39029992 0.035429668
000030 f8 ee 35 be 5d 5d fa 3d 07 10 b2 bc 29 16 25 3d
       -0.1776694 0.12224839 -0.021736158 0.040304337
000040 a1 88 e1 3e 33 8b 9c bd 8a b8 4f be 34 a4 98 bc
       0.44049552 -0.07643738 -0.2028524 -0.018632986
000050 83 76 a7 3e 10 13 f0 3e 06 f0 3d 3e 34 cc e9 bc
       0.32707605 0.46889544 0.18548593 -0.028539754
000060 d4 6a 2e bd 0d 6f aa 3e f8 cf 51 3d cc 2e 9d 3c
       -0.042582348 0.3328785 0.051223725 0.019187354
000070 e5 aa fa 3e 9d 37 92 3e fd 0f f1 3d d1 8d ca 3d
       0.48958507 0.28558055 0.11770628 0.098903306

features.3.4.running_var f4 [32]
000000 93 10 4d 3e bc c0 50 3e a7 66 91 3d 52 d2 17 3e
       0.20025854 0.20386022 0.070996575 0.14826325
000010 c5 48 90 3e 86 e2 11 3e 26 5d d4 3d a6 7a df 3d
       0.2818052 0.14246568 0.10369329 0.10912065
000020 b9 d5 f5 3d 34 e7 cf 3d 88 4a 1a 3e 04 25 45 3e
       0.12003655 0.1015152 0.15067494 0.19252402
000030 20 8c 15 3e 88 34 b5 3d 7f e2 39 3e fb 26 05 3e
       0.14604235 0.0884791 0.18152808 0.13003151
000040 4b 6b 39 3e c7 71 01 3e e0 3d b3 3d 62 42 f9 3d
       0.18107335 0.12641059 0.08752036 0.12170865
000050 95 38 84 3e df 43 2d 3e ed 83 cb 3d 6a b1 92 3d
       0.2582442 0.16920422 0.09937272 0.07162745
000060 a3 5d 90 3e 73 29 43 3e d5 40 3b 3e 49 30 b7 3d
       0.2819644 0.1905878 0.1828645 0.089447565
000070 ee 53 5c 3e aa 66 1b 3e b7 45 dd 3d e5 65 ce 3d
       0.21516392 0.15175882 0.10804313 0.100780286

features.4.0.weight f4 [32, 1, 3, 3]
000000 20 8b 8b be 4c 06 b2 be 41 b4 82 3e 40 77 c4 bb
       -0.2725458 -0.3477043 0.25528148 -0.005995661
000010 1d 6f c0 3c 89 e4 85 3e fc 3c 5e 3e b9 b2 15 be
       0.023490483 0.2615092 0.21702951 -0.14618959
000020 12 a6 0f bd 06 78 1d be 17 44 b7 be c3 e9 67 be
       -0.035070486 -0.15377817 -0.35794136 -0.22647767
000030 b2 2f 4a 3e 88 30 04 3e cd 4d 77 3e 70 d3 cb bd
       0.19744757 0.12909138 0.24150772 -0.09952438
000040 37 02 66 bc 63 c2 f8 3d bd ab 0f bc fd 99 85 be
       -0.014038614 0.12146451 -0.008768973 -0.26094046
000050 8c 8c f0 bd af 70 dc bd 2e 68 90 be fb 7e 9b be
       -0.11745557 -0.1076368 -0.28204483 -0.30370316
000060 bf 0d 00 be 91 ac 66 be c2 92 35 3e ed da b0 be
       -0.12505244 -0.22526766 0.17731765 -0.34542027
000070 de 07 1c bc d1 d7 b7 bd 6b 24 85 bd b3 92 e8 3d
       -0.00952336 -0.089767106 -0.06501087 0.11356106
000080 46 a5 54 3e d5 e8 68 3c eb 56 52 be 29 d4 3f 3d
       0.20766172 0.014215668 -0.20540969 0.04683319
000090 14 b7 90 bd fe 4c 41 be af 81 78 3d 89 1c 7f be
       -0.070661694 -0.18877026 0.06067055 -0.24913229
0000a0 1f 29 a5 bd 78 4b 06 3e 8e 5a 96 bd 28 e9 1a 3e
       -0.08064484 0.13114727 -0.07341491 0.15128005
0000b0 aa a0 f9 bd 0c db 7b be d6 70 73 3e 80 46 a5 3e
       -0.12188847 -0.24595279 0.23773512 0.3228035
0000c0 dd b5 78 3e aa 28 ab 3e 31 fd c1 bd 72 8f b7 3c
       0.24288125 0.33429462 -0.094721206 0.022407267
0000d0 f0 aa 97 bd b5 1d 3d 3e d2 74 90 3e b1 9e 63 be
       -0.074056506 0.18468364 0.28214127 -0.22228505
0000e0 95 73 89 be b2 79 8b bb bc da 85 3e 3a c5 ee bd
       -0.26845995 -0.0042564506 0.26143444 -0.11658712
0000f0 87 72 c5 3d a2 c8 93 3d 6d bb df bd 76 27 23 3e
       0.09640985 0.07216002 -0.109244205 0.15933022
000100 85 ca e8 3d cf 72 e4 3d e5 84 7b 3e 2f a5 e1 bb
       0.113667525 0.111547105 0.24562414 -0.0068861465
000110 4a c6 56 3e 88 fa bd be a5 b6 57 3e ae 3c 5c 3d
       0.20974079 -0.37105203 0.21065767 0.053768806
000120 b1 a7 94 bd 0f a4 81 be 9c e2 c6 bb 94 d6 94 3e
       -0.07258547 -0.2532048 -0.0060694944 0.2906996
000130 c8 21 80 3e 58 fc 96 3e 80 c8 22 be 6b ce 8c 3d
       0.25025773 0.29489398 -0.15896797 0.068753086
000140 9b 1b 20 be be d2 18 be 98 bf 58 3c 44 94 bd 3d
       -0.1563553 -0.14924142 0.013229273 0.09256795
000150 9e ae af bd e6 1d 95 be 31 c1 ba 3e b8 b0 91 be
       -0.085782275 -0.29124373 0.36475518 -0.28455138
000160 33 3e 69 3e ea 15 9a 3e 21 b3 69 be 26 52 6d 3e
       0.22777633 0.30094844 -0.22822239 0.23175868
000170 2f 0a 0c bb f3 d4 6a 3e 33 14 e7 3d 93 09 0b 3e
       -0.0021368375 0.22932796 0.112831496 0.13577871
000180 36 10 6b be 04 c0 90 3d f4 12 97 be a9 eb 09 be
       -0.22955403 0.07067874 -0.29506648 -0.13468803
000190 d4 b5 7d 3c 39 7e 95 3e 53 07 55 be f0 18 8d be
       0.015485246 0.29197863 -0.20803575 -0.27558088
0001a0 93 89 a5 3e 5e 91 ea 3d 2c ff 01 3e 4b 1a 3c 3e
       0.32331523 0.11453508 0.12694997 0.18369405
0001b0 28 ba 93 3e 46 09 58 3e 3c e7 27 3e 40 d7 c1 3e
       0.28852963 0.21097288 0.16396803 0.37859535
0001c0 08 07 50 be 08 e1 10 be 0f b8 eb 3d 30 ee 8b 3d
       -0.20315182 -0.14148343 0.11509716 0.0683254
0001d0 d4 ae 6a 3e a0 ba 2d bd 8e 2a f3 bd 05 51 75 3e
       0.22918254 -0.042414308 -0.11873351 0.23956688
0001e0 f2 f4 a0 bd e4 c0 a7 3e 41 5f 16 3e 03 54 b7 bb
       -0.078592196 0.3276435 0.14684774 -0.005594732
0001f0 d8 cb 8d 3e 9a 2c 9a be ce f0 07 3e ca be ff 3c
       0.27694583 -0.30112153 0.13275453 0.031218905
000200 72 b4 44 3e 32 94 e4 bd 54 46 4f 3d 7d e2 9a 3e
       0.1920946 -0.111610785 0.05060418 0.30250922
000210 88 31 3f be 4e 8d 4b 3e 76 51 90 be 21 16 96 be
       -0.18671238 0.19878122 -0.2818715 -0.29313758
000220 0b 27 b5 bd 2a 71 ee 3c 73 ed 90 3e dc 4e 80 be
       -0.088453375 0.029106695 0.2830616 -0.25060165
000230 3b 31 3d be 2d 49 80 bb 31 72 05 be 9e eb 37 be
       -0.18475811 -0.0039149732 -0.13031842 -0.17960975
000240 60 6d 48 be 32 6d f4 3d b8 21 8c 3e bd 9b 6f be
       -0.19572973 0.1193489 0.27369475 -0.23399253
000250 ae 5d 84 be aa ad 9f bd e4 05 6c 3d b5 0b 05 3d
       -0.25852722 -0.07796796 0.057622805 0.032481868
000260 e0 e2 4e be 4e ba a6 be 3a d9 04 3e b0 eb b9 be
       -0.20203733 -0.32564014 0.1297349 -0.36312628
000270 5a a1 17 3e 49 f9 e4 3d 6c cf f8 bb e7 7f 61 bc
       0.14807644 0.1118036 -0.007593086 -0.013763404
000280 eb c0 ba be b8 70 42 3d 01 12 3d 3c 33 fd 11 be
       -0.3647531 0.04747078 0.011539937 -0.14256744
000290 84 21 ae 3c 7e a7 92 3d f9 0f c4 3c 86 3b 7d 3e
       0.021256216 0.07160853 0.023933398 0.24729738
0002a0 11 5c 30 be 8b ed 2f bd 72 de c8 3d 22 90 83 3e
       -0.1722262 -0.042951148 0.09808053 0.25695902
0002b0 55 6f 8e bb cc f0 4d 3c a6 ec 90 3e b3 63 7b be
       -0.004346768 0.0125696175 0.28305548 -0.24549751
0002c0 d4 9d 73 be 6a f3 20 3d 36 b5 08 bc a2 b7 3f 3e
       -0.23790675 0.039294638 -0.008343985 0.18722394
0002d0 f2 0d 2c 3d 5e d9 ce bb ba 9d 55 3d 69 d0 16 3d
       0.042005487 -0.0063125333 0.052152373 0.03681985
0002e0 db a5 d5 3d b5 4b 57 3e 4f a9 27 be ca c8 a3 be
       0.10432025 0.21024974 -0.1637318 -0.31989127
0002f0 bb 7a 9a 3e af fe 24 bb d6 4e 87 3e ab 52 a1 3e
       0.3017176 -0.0025176217 0.26427335 0.31508383
000300 1e 0b 57 be db 20 be 3d 10 55 e4 bd 96 c2 a0 3e
       -0.21000335 0.092836104 -0.11149037 0.31398457
000310 45 ac 59 be 27 f3 29 3d c6 38 f9 3d 28 ef 02 3e
       -0.21257122 0.041491654 0.12169032 0.12786543
000320 31 ef 71 3d 16 f5 90 3e 03 33 1f 3e 52 05 d7 3d
       0.059066 0.28311986 0.15546803 0.10499062
000330 8e cb 5a be 38 65 62 be 2d d2 89 be 91 19 5a bd
       -0.21366712 -0.22108924 -0.26918164 -0.05324704
000340 8d 2f f5 bd 62 e1 60 be 90 38 8c be fb b3 fa 3d
       -0.1197196 -0.21960977 -0.27386904 0.1224136
000350 20 3d 1b be aa a0 88 3e f2 a1 0f 3e 08 b6 8a 3e
       -0.15160036 0.26685077 0.14026621 0.27092004
000360 81 0f 9e bc 03 3f 90 bd 82 e1 85 3e 31 fc f8 3d
       -0.019294502 -0.070432685 0.2614861 0.12157477
000370 e4 41 02 be 28 62 97 3e 37 6d 7e bc e3 40 a5 3e
       -0.12720448 0.29567075 -0.015528969 0.32276067
000380 e4 06 6c 3e a4 0e b1 3e cb eb 28 3c 57 92 4b be
       0.23049504 0.34581482 0.010310124 -0.19880043
000390 02 fa 85 bd cc e6 8c 3d 04 2b fd bd 3c 3c 8b be
       -0.06541826 0.068799585 -0.1236172 -0.27194393
0003a0 31 25 5a 3c 39 0f 6a be f9 7d 4c 3e b8 38 86 3e
       0.013314531 -0.2285737 0.1996993 0.26215148
0003b0 87 3e 4f 3e 1f e1 68 3e 6a e5 e8 bd 34 9a ce bd
       0.20238696 0.22742127 -0.11371882 -0.10088006
0003c0 aa 80 36 3e 28 6c 90 3e 83 14 89 3e 07 6f 27 be
       0.17822519 0.28207517 0.26773462 -0.16350947
0003d0 04 4b d0 3d e2 4e 86 3d e0 08 9d be 33 3e 64 bc
       0.10170558 0.065580145 -0.30670834 -0.013930845
0003e0 ab ec e0 3d b5 36 a7 be bb 77 a4 3d d0 33 82 be
       0.10982641 -0.32658926 0.08030649 -0.25430155
0003f0 9e e3 9c be 32 64 81 3e 59 70 4e be c0 1b 1e 3e
       -0.30642408 0.25271755 -0.20160045 0.15440273

features.4.1.weight f4 [32]
000000 7a ee 7d 3f 3e f5 7f 3f 86 bf 8a 3f 37 cd 72 3f
       0.9919201 0.99983585 1.0839698 0.94844383
000010 39 e2 75 3f 2d fe 7f 3f 45 05 7b 3f ec 87 73 3f
       0.96048313 0.99997216 0.98054916 0.95129275
000020 d8 b0 79 3f f7 a9 76 3f 6f 26 79 3f 73 db 82 3f
       0.9753547 0.96353096 0.9732427 1.022322
000030 be 5c 82 3f 8b c0 7d 3f 4b c5 7d 3f 3f 95 82 3f
       1.0184553 0.9912192 0.9912917 1.0201796
000040 8f 91 81 3f 1f b8 74 3f 1e a3 7e 3f 59 de 6f 3f
       1.0122546 0.95593446 0.9946765 0.9369865
000050 70 e8 88 3f 27 90 7e 3f 68 0e 8b 3f 39 0c 7c 3f
       1.0695934 0.9943871 1.0863771 0.9845615
000060 f6 9d 85 3f e5 c3 8b 3f bd 85 81 3f 27 06 7d 3f
       1.0438831 1.0919157 1.0118939 0.9883751
000070 4e 37 85 3f 90 80 81 3f db d6 7a 3f ec 8d 82 3f
       1.0407503 1.0117359 0.97984093 1.0199561

features.4.1.bias f4 [32]
000000 19 4f 28 3d c6 f3 10 bd 65 4a 93 3d 74 51 55 bd
       0.04109106 -0.03538873 0.07191924 -0.052079633
000010 d6 52 a4 bc 90 3f df bc 63 59 32 bd 20 19 0d bd
       -0.02005903 -0.027251989 -0.043542277 -0.03444779
000020 4e 44 bb bc e3 36 dc bc dc 00 a7 bc 10 92 a1 3d
       -0.022859719 -0.02688164 -0.020386152 0.07889187
000030 7b e5 8e bb 9a 66 a8 3c e3 6f cf bc 0c d3 03 3d
       -0.0043608523 0.020556737 -0.025321906 0.03218369
000040 0c 84 4a 3c 4c 2b 19 bd 12 3f 02 3c a8 05 d1 bc
       0.012360584 -0.037394807 0.007949607 -0.025515392
000050 e1 f9 6b 3d ed 38 9a 3c c9 7c 58 3d f3 8f 68 bc
       0.05761135 0.018825972 0.05285338 -0.014194476
000060 72 95 87 3d a2 10 a8 3d 26 56 97 3d e0 40 7c 3b
       0.06620301 0.082062975 0.073894784 0.0038490817
000070 8f d9 f6 bc c4 cf 37 3d 83 9d 42 3c e0 34 24 bc
       -0.030133037 0.044875875 0.011878374 -0.010022372

features.4.1.running_mean f4 [32]
000000 91 9c 8f 3c 5f 2e 2b bd f7 20 dc be 3f cb 67 bd
       0.017530711 -0.04179227 -0.429939 -0.056590315
000010 f5 7a 0a be a2 e0 96 3e 02 e7 bb bc 03 78 7c 3e
       -0.13523467 0.29468256 -0.022937302 0.24655156
000020 4c d4 0c 3e 2f 68 99 3d a0 11 56 3d 49 0f 48 3e
       0.1375286 0.074905746 0.052262902 0.19537081
000030 fe a7 90 3e f7 56 16 3e d5 24 d1 3d 2c 3d 81 be
       0.28253168 0.14681612 0.10212103 -0.25241983
000040 57 15 11 be ef 22 3d be fd 93 ab 3d b8 60 a8 3d
       -0.14168297 -0.18470357 0.08377836 0.08221573
000050 ac d6 df 3d ac a0 b2 3d 66 f9 de 3d fd bc ca 3b
       0.10929617 0.08722052 0.10887413 0.00618708
000060 70 54 c6 3e 9f 7d 30 be 3f a2 ea 3e b5 dd 7a be
       0.38736296 -0.1723542 0.4582691 -0.24498637
000070 2a 79 12 bd 32 ef 37 3e 21 e7 12 3c e4 0d c8 3d
       -0.035760082 0.1796234 0.008966238 0.097682744

features.4.1.running_var f4 [32]
000000 cd 15 05 3e 2f 39 4d 3d c0 d8 a8 3e b3 fa 50 3d
       0.12996598 0.050103363 0.32977867 0.051020335
000010 84 d2 f4 3c b7 28 d6 3d 84 a2 22 3e 56 89 10 3e
       0.029885538 0.104569845 0.15882307 0.1411489
000020 37 c0 14 3e c1 2b 84 3e 1d 1d 0a 3d 3a 66 1c 3e
       0.14526449 0.25814632 0.03371917 0.15273371
000030 87 41 e8 3d b8 66 fb 3d 55 a7 0b 3e d8 42 5d 3e
       0.11340623 0.122754514 0.13638051 0.2160753
000040 79 9c 24 3e fc 22 8b 3d ed 87 45 3d 88 6d c6 3d
       0.16075315 0.06793782 0.048225332 0.0968886
000050 0e 67 02 3e 75 80 12 3e 40 27 fb 3d 15 c0 32 3e
       0.12734625 0.14306815 0.12263346 0.17456086
000060 76 60 cf 3d 86 10 2b 3e 0c 55 0d 3e 7d 8c e1 3d
       0.1012582 0.16705522 0.13801974 0.11013124
000070 e1 c7 05 3e 23 a9 35 3e 7b d9 1d 3e c3 4d f9 3d
       0.13064529 0.17740302 0.15414993 0.12173035

features.4.3.weight f4 [64, 32, 1, 1]
000000 a7 03 33 be eb bd a6 bd f4 1e 20 3e 95 5c ce 3d
       -0.17481862 -0.08141693 0.15636808 0.10076252
000010 6d e0 06 be 43 16 16 3c c0 7a 22 bd 08 0b 50 3d
       -0.13171549 0.009160581 -0.039667845 0.05079177
000020 d9 4a a1 bc dc 50 05 3e 48 83 9a bd 78 85 93 3d
       -0.01968901 0.13019127 -0.07544571 0.072031915
000030 1b 6b 71 3d 41 ab 81 bc 04 f6 19 be 02 55 28 be
       0.058940034 -0.01582873 -0.15035254 -0.16438678
000040 de de f5 3c 62 68 39 3d 98 1c aa bd c1 5b 3c 3d
       0.030013498 0.045265563 -0.08306235 0.04598594
000050 79 5e 53 3d a7 06 28 bd 37 4d 1d be 23 f9 a0 3d
       0.051603768 -0.04102197 -0.15361486 0.07860019
000060 20 2f 8b 3d e5 5f 1f be 70 68 3f 3d 06 77 34 bd
       0.06796098 -0.15563925 0.04673046 -0.044058822
000070 2f 84 5f bd 18 0e eb bd 73 91 b6 bd 5e d3 0c 3e
       -0.05456942 -0.114772975 -0.08914461 0.13752505
000080 c8 6f 5f bd b8 1e 11 3e d6 78 a0 bd 13 59 8c bd
       -0.054549962 0.14171875 -0.078355476 -0.06852927
000090 7a 2b 31 3e 3f e2 e6 3d de 07 13 3d 6c 77 dd bd
       0.17301741 0.11273622 0.035896175 -0.108137935
0000a0 63 57 03 be af 77 90 bc 5f 6c 80 3d b0 cc 25 3e
       -0.12826304 -0.017635195 0.0627067 0.16191363
0000b0 e1 d1 1d 3e 2c 3d eb 3d c4 a4 ab bd dd 45 94 3c
       0.15412094 0.11486277 -0.08381036 0.01809972
0000c0 38 d1 19 be fa 8b a2 bc 75 63 87 3c 46 04 a7 3c
       -0.15021217 -0.019842137 0.016526917 0.02038778
0000d0 18 99 ad bd 76 5f 00 3e 90 41 30 bd 01 d7 4f 3c
       -0.08476466 0.12536415 -0.043031275 0.012685538
0000e0 f5 92 32 3e 4e b6 63 be 27 47 07 bd 1a 5b 36 3d
       0.17438872 -0.22237512 -0.03302684 0.044520475
0000f0 3f 54 d5 bb 64 fa ac 3d 85 8c ee 3d 13 27 28 3d
       -0.006510287 0.08446196 0.11647896 0.04105289
000100 88 8d ac 3d 02 08 a4 bd fd aa e4 bd 3d 54 09 3e
       0.084254324 -0.0800934 -0.11165426 0.1341104
000110 f6 bb f1 3d 43 30 5b bc 76 ff d7 3d 09 2d 36 3e
       0.11803429 -0.013378206 0.10546772 0.17790617
000120 63 46 9e bd 46 e7 b6 3d eb 11 00 3e 22 63 f9 3d
       -0.07728269 0.08930831 0.12506835 0.12177111
000130 d4 47 18 3e 59 b0 61 3d f2 63 8e 3d 60 af 8d 3d
       0.1487115 0.05509982 0.06952657 0.06918216
000140 17 5b e2 3d 1c 11 94 3d 47 e5 49 bd d2 8b 30 bd
       0.1105253 0.07229826 -0.04929092 -0.043102093
000150 2b 62 91 bc da 3d 85 bb 14 69 83 3d 37 bc 27 3e
       -0.017747005 -0.004066211 0.064165264 0.16380392
000160 9b b1 a6 3d e1 04 df bd 83 9d d7 bd 55 eb 78 3d
       0.08139344 -0.108896025 -0.1052809 0.060771305
000170 a2 d1 fc 3d cb 5f 74 bd 9b 4d 9e bd 5f 37 73 3c
       0.12344672 -0.059661668 -0.07729646 0.0148447445
000180 73 2e 9e 3d 1d 5e 90 bd 02 f9 0e bd ec 7a f0 3c
       0.07723703 -0.07049201 -0.03490544 0.029355489
000190 86 ee 33 bd 0a 6b 3c 3e 24 3f 23 3e 44 d2 0c 3e
       -0.043928646 0.18400207 0.15942055 0.13752085
0001a0 c0 0c d6 3c 5b 03 e3 3d 5d 7f 83 3d 8f 41 8d 3d
       0.026129127 0.110846244 0.06420777 0.0689727
0001b0 98 30 7a bd dd 82 29 be df b4 75 3c 56 81 e8 bc
       -0.0610815 -0.16553827 0.014996736 -0.028381985
0001c0 94 a8 48 bd b8 ba 47 bd 56 fc 7d 3d 1e 9f 64 bd
       -0.048988894 -0.048762053 0.062008224 -0.05581581
0001d0 c0 ca 55 be 5f 98 4e 3d ce 86 96 bd 13 41 6a bd
       -0.20878124 0.05043828 -0.07349931 -0.057190966
0001e0 c4 b0 b2 bd a5 0b 25 3d c7 73 40 3e d7 8a 73 bb
       -0.087251216 0.04029431 0.18794166 -0.0037161612
0001f0 0a fa 3f 3e ef 36 31 3c be bd cd 3d f4 07 fb 3d
       0.18747726 0.01081632 0.10045956 0.12257376
000200 2b 57 2c be 56 d0 03 be d9 c1 a2 bc bf 3c 0a 3e
       -0.16830127 -0.12872443 -0.019867824 0.13499735
000210 e4 8a 4a be 0b 5b d8 bc 32 04 5b 3d c7 92 44 3d
       -0.19779545 -0.0264106 0.053470798 0.04799154
000220 87 be 1a 3c 61 0e de bd 51 17 00 be 58 b6 90 bd
       0.009444839 -0.10842586 -0.12508895 -0.07066029
000230 ce ba 15 be f7 ea 79 bd 16 b1 ca bd a9 f1 04 bd
       -0.14622042 -0.061015096 -0.09897058 -0.032457028
000240 88 b9 b1 bc 5f b7 95 3d 09 c1 89 3c 29 ed 1b 3e
       -0.021694914 0.07310366 0.01681568 0.15227188
000250 58 ad 70 bd e3 e0 76 bd 96 57 4b bd ea a5 10 be
       -0.058759063 -0.060273062 -0.049644075 -0.14125791
000260 61 1b 23 3d a8 c9 1b 3e 65 a5 87 3d cf ba ab 3d
       0.039821032 0.15213645 0.066233434 0.0838524
000270 8e e1 95 3c eb 44 e6 bd 90 dd 02 be 63 d6 94 bd
       0.01829603 -0.11243614 -0.12779832 -0.072674535
000280 e4 29 14 be cb 41 15 be ef b4 82 bd 7f 57 d5 3d
       -0.14469105 -0.1457588 -0.063821666 0.10417079
000290 4e 5a f2 3d b2 ea be bd f3 c4 e5 3d bd f8 d0 3c
       0.118336305 -0.09322108 0.11219206 0.025509233
0002a0 5f fe 0b be 28 93 3e bc 5d 49 f0 bd 29 8f 22 3e
       -0.13671254 -0.0116317645 -0.11732743 0.15874924
0002b0 bc a7 01 3e 57 ee 0e be de a2 83 bd ae 76 d1 3d
       0.12661642 -0.13958107 -0.06427549 0.102277145
0002c0 46 02 53 3e ef 88 a5 3c 04 ff af 3d 75 33 05 bc
       0.20606336 0.020206897 0.08593562 -0.008129944
0002d0 dc de c3 3d 2a d3 75 3d 36 11 85 bc 6f 87 5b be
       0.095639914 0.060015835 -0.016243558 -0.21438383
0002e0 b7 1b 08 bd bd f9 cf bd 39 5d 97 3c 03 95 f0 3d
       -0.033229556 -0.10155056 0.01847707 0.11747172
0002f0 0e 0b ed bd bd 87 28 3e 98 ff b2 bc d3 9b 25 be
       -0.11574374 0.1645803 -0.021850392 -0.16172723
000300 60 ff e8 3b 25 6b 9c 3d c4 52 90 3d d9 ba 07 3b
       0.007110521 0.07637624 0.07047036 0.0020710735
000310 68 b6 f2 3d 86 71 9b 3d 54 06 51 bd 60 85 03 be
       0.118511975 0.07590012 -0.051031426 -0.12843847
000320 3d e6 41 3e df f0 ac bd f8 55 da bc 43 5c cc 3d
       0.18935485 -0.0844438 -0.026652321 0.09978535
000330 f1 61 fa 3d 71 68 e1 bc ea 91 c8 bd f9 5b bc 3c
       0.12225712 -0.027515622 -0.09793456 0.022993075
000340 cc 4d 89 3d b3 cf b9 bd b0 f9 11 3d ee 80 cf 3c
       0.06704292 -0.090728186 0.03563851 0.025330033
000350 70 96 2c 3e 08 58 da bc 26 0d 60 bd 22 ac 22 be
       0.16854262 -0.026653305 -0.05470004 -0.15885976
000360 03 88 5a bd 0c 8f bc bd b5 5e a7 bd 8c 43 21 3d
       -0.053352367 -0.092069715 -0.08172361 0.03937106
000370 8c 0d 21 3c 30 92 c2 bd 31 b5 b3 bb 23 f6 b2 3d
       0.00982989 -0.09500539 -0.005484246 0.08738353
000380 78 dd 8b bd 73 af 6f bd a7 ef 62 3d d1 38 c6 3d
       -0.06829351 -0.05851693 0.05540433 0.096788056
000390 a8 3e 83 3d ab 0b 41 3d 70 4e 2d 3c 8c 89 ca 3d
       0.06408435 0.047130268 0.010577783 0.09889516
0003a0 7e 35 99 3d 2c 2f d5 3d 9f d2 8b bd 90 e3 a2 3d
       0.07480906 0.10409388 -0.06827282 0.0795356
0003b0 4e a3 9c 3d 18 b0 2b be 29 c7 1f be 51 7c 8d 3d
       0.076483354 -0.16766393 -0.15603317 0.06908477
0003c0 11 37 2b 3e b3 60 c0 3d 44 60 9a bd d5 ac a7 3d
       0.16720225 0.09393444 -0.075378925 0.08187262
0003d0 27 08 28 3e 84 15 bb 3d 1a ed 01 be 0f c5 09 3e
       0.1640936 0.09134963 -0.12688103 0.13454078
0003e0 ef 14 11 3e 2d f3 3c be 2b 6e 4b 3e 5e f1 53 bd
       0.14168142 -0.18452139 0.19866244 -0.051743858
0003f0 0d c1 d0 bd 4a 35 0b bb 45 03 5d 3d 76 f7 df 3c
       -0.101930715 -0.002124148 0.053958196 0.027339678

features.4.4.weight f4 [64]
000000 7c 15 7f 3f b8 5d 73 3f 36 4b 69 3f 2a ac 62 3f
       0.9964216 0.9506488 0.9113039 0.8854395
000010 7d 8b 71 3f 29 f0 81 3f a7 7d 77 3f 0f b2 4e 3f
       0.9435347 1.0151416 0.96676105 0.80740446
000020 95 23 7e 3f 2b 0b 74 3f 04 35 7e 3f db 5e 77 3f
       0.99273044 0.9532954 0.99299645 0.9662911
000030 33 ad 7f 3f 3a a4 6f 3f ce 0e 6a 3f 11 1e 7c 3f
       0.99873656 0.93609965 0.9142884 0.9848338
000040 f8 87 7e 3f 56 b6 69 3f 6d a9 6b 3f 67 ce 45 3f
       0.9942622 0.9129385 0.920554 0.7726807
000050 8c f6 5a 3f 2f 8f 69 3f 71 d9 70 3f 4d 99 7a 3f
       0.8553245 0.91234106 0.9408179 0.9789017
000060 55 47 7d 3f 4e f9 70 3f 71 68 7e 3f 40 4a 80 3f
       0.9893697 0.9413041 0.99378115 1.0022659
000070 ba 0b 68 3f 6c 54 6f 3f b1 32 7e 3f 88 57 74 3f
       0.90642893 0.9348819 0.992961 0.9544606
000080 b8 43 5b 3f b5 5f 6d 3f 1f 6f 7f 3f a3 5c 7b 3f
       0.85650206 0.9272416 0.9977893 0.9818823
000090 cf 1e 6b 3f db c8 75 3f 04 a1 78 3f a8 15 74 3f
       0.91843885 0.96009606 0.9712069 0.95345545
0000a0 5d 3a 6b 3f 7e dd 79 3f e9 70 6e 3f f2 fb 67 3f
       0.9188593 0.97603595 0.9314104 0.90618813
0000b0 ea 14 74 3f 24 6f 4e 3f 11 9d 7d 3f 41 fa 7c 3f
       0.9534441 0.8063834 0.9906779 0.9881936
0000c0 60 9a 58 3f 35 32 50 3f 40 41 78 3f 82 27 54 3f
       0.8461056 0.8132661 0.96974564 0.82872784
0000d0 32 ce 78 3f 4b 58 7c 3f 4a 46 71 3f b3 6c 68 3f
       0.9718963 0.98572224 0.9424788 0.9079086
0000e0 16 21 6b 3f 98 f6 6e 3f c3 f0 77 3f e5 5b 7a 3f
       0.9184736 0.9334502 0.9685175 0.9779647
0000f0 2e 26 74 3f 33 f7 78 3f 33 df 73 3f 79 25 70 3f
       0.9537076 0.97252196 0.9526245 0.9380718

features.4.4.bias f4 [64]
000000 12 98 1c 3c 3c 90 21 3d 56 30 6d 3d bc 5c 8d 3d
       0.009557741 0.039444193 0.057907425 0.06902453
000010 53 e8 2f 3d 24 3c 43 3c 9f bf 01 bd df fd dd 3d
       0.04294617 0.011916194 -0.031676885 0.10839438
000020 c4 3a 9b 3c d0 f5 0f bd 0e 6b 41 bc 3c 80 f3 3c
       0.01894892 -0.035146534 -0.011805309 0.029724233
000030 d6 ae 0f bc ea 9d 3e 3d ca e4 76 3d a4 d7 c7 3c
       -0.0087697115 0.046537317 0.060276784 0.024394818
000040 ff f4 7f 3c 70 10 6f 3d ec 9d 53 3d 63 d9 82 3d
       0.015622376 0.058365285 0.051664278 0.063891195
000050 d3 24 a0 3d c0 25 67 3d 29 e0 38 3d f3 60 c3 3c
       0.07819524 0.056432486 0.04513565 0.02384994
000060 eb 15 93 3c 0d 71 0e 3d 00 17 8d 3c ae 15 20 3c
       0.017954787 0.034775782 0.017222881 0.009770794
000070 d7 3a 53 3d 22 e6 1c 3d 87 49 8c 3c 3f d1 1c 3d
       0.051569786 0.03830541 0.017124904 0.03828549
000080 67 8e 4a 3d c8 4a 3f bd ab 76 bb 3a 69 a5 97 3c
       0.04945221 -0.046702176 0.0014302334 0.01851149
000090 4c 1a 0d bd 42 63 db 3c 87 f5 7a bc 64 ae fb bc
       -0.034448907 0.026780728 -0.015317327 -0.030722804
0000a0 87 f0 43 3d de 35 a4 3c 27 7c 27 3d 66 f6 8f 3d
       0.047836807 0.020045217 0.040889885 0.07029419
0000b0 f3 75 26 bd 08 e8 af 3d 05 b5 9a 3c f7 fa 95 3c
       -0.04063983 0.08589178 0.018885145 0.018308146
0000c0 36 58 a4 3d 4d 67 ae 3d 6f 99 d2 3c 41 7b e1 3d
       0.080246374 0.08515797 0.025707928 0.11009837
0000d0 82 5d c5 bc 48 49 8f bc 62 c5 38 3d 4e b5 20 3d
       -0.02409244 -0.017490998 0.045110114 0.039235406
0000e0 b1 39 49 bd 26 db 26 bd ff d8 82 3c 7f 42 0b 3d
       -0.049127284 -0.04073634 0.015972612 0.033998962
0000f0 69 1f 14 3d 73 62 db 3c dc 5b 20 bd d8 b7 23 bd
       0.036162768 0.026780343 -0.039150104 -0.03997025

features.4.4.running_mean f4 [64]
000000 4c ff 2d be 28 35 3c 3e cf 54 c6 3e c0 4a 47 3e
       -0.1699192 0.18379653 0.3873658 0.19462109
000010 6d d7 a3 be b9 59 0b bd 5a 2c 67 3d ea 53 9e 3e
       -0.32000294 -0.034021113 0.05643878 0.30923396
000020 11 c7 78 3d 7f b3 2a bd 57 5e 01 3e 89 d2 a6 be
       0.06073672 -0.041675087 0.12633644 -0.325825
000030 f4 ca 87 3e fc df d4 bc fd 83 e2 3e 20 37 3b 3e
       0.26522028 -0.02598571 0.44241324 0.18282747
000040 e3 67 18 bc 59 ee 66 be 2f 7f 81 bd 37 0b d0 bd
       -0.009302112 -0.2255186 -0.063230865 -0.10158389
000050 cb 8b 78 bd 7f 78 07 be ea c6 01 3e b9 84 ef 3e
       -0.060680192 -0.1322956 0.12673536 0.46780947
000060 3b d2 34 bd 4d 51 05 3e 94 4f b8 3d 8e b4 62 bd
       -0.044145804 0.13019295 0.08999553 -0.05534797
000070 d5 31 86 3e ba 46 91 3d 98 a9 17 3d 8d 48 07 3e
       0.26209894 0.07093568 0.03702697 0.1321127
000080 cc 63 3e be 00 42 d2 bd 40 8d b1 3e 89 31 04 bf
       -0.18592757 -0.10266495 0.34678078 -0.51638085
000090 04 1b ba bd 0b d7 b7 3e 82 70 16 3d f7 ac 91 3e
       -0.09087184 0.35906252 0.03672839 0.28452274
0000a0 eb 44 1d 3e 3c b2 41 be d7 f1 50 3d 9b a0 92 3e
       0.15358321 -0.18915647 0.051011886 0.28638157
0000b0 04 ac 7c be af 71 c6 bc 4c 74 0c 3f 09 da b6 be
       -0.24674994 -0.02422413 0.54864955 -0.35713223
0000c0 0c eb 4a bc 7a b2 4b 3e 61 5e 45 3e 59 66 b4 3e
       -0.012385141 0.19892302 0.19274284 0.35234335
0000d0 e0 4d 7e be 9a 07 2e 3d 75 57 51 be 1f 27 bb 3e
       -0.24834394 0.04248772 -0.20443518 0.36553285
0000e0 ef fd bf 3d 7e 77 6e 3e 10 95 f0 bc f7 42 a1 be
       0.09374606 0.2328777 -0.029367954 -0.31496403
0000f0 ce d7 0f 3d 72 04 cc 3b c7 31 48 be 87 fe 62 bd
       0.035117917 0.006226116 -0.19550239 -0.055418517

features.4.4.running_var f4 [64]
000000 0d 58 1f 3e c3 07 03 3e 3e 38 15 3e 2a 8e f7 3d
       0.15560932 0.1279593 0.14572236 0.120876625
000010 eb f7 6d 3e fd 93 2c 3e 52 a7 cb 3d ac bf 21 3e
       0.23239104 0.16853328 0.09944023 0.15795773
000020 e2 3f 2b 3e bc 03 09 3e b8 b1 35 3e 58 90 31 3e
       0.16723588 0.13380331 0.17743576 0.17340219
000030 4f b5 d0 3d 3d 93 19 3e 9b 1e 8c 3e 00 4c 24 3e
       0.10190832 0.14997573 0.273671 0.16044617
000040 64 5f fe 3d 98 e2 33 3e c1 dd e2 3d 12 68 df 3d
       0.12420538 0.17566907 0.110774525 0.10908522
000050 2e c8 f8 3d 10 b9 25 3e 9f 6c 2a 3e 90 24 28 3e
       0.12147556 0.16183877 0.16642998 0.16420197
000060 37 29 3f 3e 65 a4 3e 3e ca 06 d7 3d d1 84 09 3e
       0.18668066 0.18617399 0.10499342 0.13429572
000070 a3 4e 09 3e aa 21 b1 3d b4 39 3b 3e 0e 4e 3a 3e
       0.13408904 0.08648999 0.18283731 0.18193838
000080 d5 b5 25 3e 3f 55 14 3e f6 84 da 3d bf b4 b3 3e
       0.16182645 0.14485644 0.106698915 0.35098836
000090 e7 c9 e6 3d f0 a5 1a 3e 5e 2a 96 3d fd ed 8f 3d
       0.112689786 0.15102363 0.073323 0.070278145
0000a0 34 df 8c 3e b9 b9 7b 3e 8e 88 19 3e a4 bd ea 3d
       0.2751404 0.24582566 0.14993498 0.11461952
0000b0 d1 1f 0a 3e 8e 9c 49 3e f0 79 2b 3e c1 8d e0 3e
       0.134887 0.19688627 0.16745734 0.4385815
0000c0 2d d2 48 3e 4c ef 1f 3e 5d 7f 2c 3e 43 e2 39 3e
       0.19611426 0.15618628 0.1684546 0.18152718
0000d0 30 07 39 3e 06 b4 ea 3d 33 81 5a 3e 1a a9 76 3e
       0.18069148 0.11460118 0.21338348 0.24087945
0000e0 88 be ef 3d f1 c6 20 3e 99 26 ee 3d 50 25 37 3e
       0.11706263 0.1570089 0.11628456 0.17885327
0000f0 c0 cb 18 3e e9 55 51 3e f5 b2 f6 3d 88 2b bf 3d
       0.14921474 0.20442928 0.12045852 0.09334475
