K230/train/arrownet.onnx (onnx, 54449 bytes, 16 tensors)

classifier.2.weight f4 [3, 128]
-0.04984526 0.14165586 0.119246915 -0.118198305 -0.05203398 0.12713377 -0.08295948 -0.091304
0.020013817 -0.10370584 -0.005338663 0.027742516 0.07472907 0.03059997 0.0087698 -0.13139413
0.12892476 -0.11362826 0.03873928 0.079917274 -0.08042914 0.018314674 -0.019032719 0.03153305
-0.09812709 -0.049079906 -0.005613086 0.06796241 -0.13069883 0.09470829 0.05793822 0.13167527
-0.07168254 -0.036781907 -0.12975766 -0.08659309 -0.14007612 -0.09913229 -0.08676035 0.019060798
0.032403167 -0.029001797 0.088578336 0.0015082058 -0.10546137 -0.025421029 -0.13759904 0.03313817
-0.021804001 0.015612712 -0.13924177 0.12273086 0.11902552 0.041247178 -0.09508892 0.0691523
-0.06386008 -0.0958573 0.008734283 0.13266939 -0.032299474 -0.0021115053 -0.104764156 -0.13505222
-0.11593686 -0.00217158 -0.035876956 0.0027193443 -0.12343828 -0.041789472 0.11265452 0.0988621
-0.14780706 0.14051543 0.09101577 0.1214553 -0.016998488 -0.08329531 0.13441928 -0.059478663
0.13062778 0.13866284 -0.107536726 0.09380696 0.08572606 -0.020643044 -0.13749719 -0.093663774
0.100267015 0.055983193 -0.08100454 -0.11300603 -0.08459784 0.11518493 -0.099725075 -0.031533338
-0.08344905 0.042259272 0.09501247 0.1161903 0.037169244 -0.047925647 0.12414427 0.09449558
0.06008528 0.08603103 0.13832183 -0.13959719 0.003002129 0.12230655 -0.11649293 -0.067257605
-0.030702077 0.14714396 0.035883155 0.013761319 -0.10050444 0.07870984 0.15682535 -0.01444025
-0.1475409 -0.10151936 -0.15008903 -0.07569472 -0.09081505 -0.040155273 0.07632919 0.08123231
0.108937845 0.03651217 -0.04925579 -0.13106878 0.011003894 -0.10343377 -0.11548061 -0.10185462
-0.09200672 -0.05866582 -0.11132774 0.12767063 -0.118826255 -0.07195543 0.05106452 -0.113413714
-0.12657452 -0.10754608 0.12142425 -0.05866132 -0.06519968 -0.15239984 0.1621347 -0.14140268
0.15961237 -0.058756594 0.0070017925 -0.024939125 0.025660515 -0.06256248 -0.10573514 -0.095016144
0.06000548 0.12019199 0.12437537 0.14813259 0.07109429 -0.052762937 -0.13279396 0.003357453
0.117563196 0.14052184 -0.12246363 0.1395236 -0.04615485 0.13487925 -0.0421529 -0.045972176
-0.06090273 -0.0688226 -0.03924501 -0.053442694 -0.041230183 -0.1463167 -0.11518122 -0.14715764
-0.11631125 -0.11964375 -0.091412485 -0.106464095 0.05999955 0.07905537 -0.09689162 0.12886372
0.043830015 -0.06053766 0.10278126 0.14584456 -0.116553046 0.13472673 -0.03403255 -0.14204445
0.13226269 -0.14532672 -0.0988153 -0.111573465 -0.020187085 0.09816886 -0.08317951 -0.058164235
-0.07766443 -0.11522549 -0.06485446 -0.1261775 -0.14975727 0.15313686 -0.041719172 -0.080435365
-0.13832231 -0.13887897 0.11571786 0.07856161 -0.10136701 -0.0485981 -0.057010584 0.03236755
0.004589263 0.04795032 -0.040343225 -0.028901774 -0.09070158 0.123983696 -0.15069972 -0.039721318
-0.08620273 -0.13265607 -0.0689446 0.13038541 -0.0031215814 -0.033460893 -0.08717811 -0.06871334
0.022353228 -0.008450232 -0.05843327 -0.05426515 -0.094102494 -0.036038075 -0.08344031 -0.095927455
0.059083264 0.06285038 0.009368856 -0.093725346 0.11830958 -0.053518813 0.13386498 -0.12243573
00000000: 8b2a 4cbd 3c0e 113e ba37 f43d f411 f2bd
00000010: 9521 55bd 5b2f 023e a9e6 a9bd 97fd babd
00000020: 04f4 a33c ba63 d4bd f3ef aebb 4644 e33c
00000030: 8e0b 993d caac fa3c 35af 0f3c 2f8c 06be
00000040: da04 043e efb5 e8bd 14ad 1e3d abab a33d
00000050: 08b8 a4bd a808 963c 81ea 9bbc cd28 013d
00000060: dbf6 c8bd 0308 49bd faed b7bb e02f 8b3d
00000070: ead5 05be 6cf6 c13d a150 6d3d e2d5 063e
00000080: 4cce 92bd a0a8 16bd 31df 04be b857 b1bd
00000090: 1d70 0fbe df05 cbbd 69af b1bd 6425 9c3c
000000a0: 2fb9 043d 2d95 edbc 8f68 b53d fdae c53a
000000b0: 21fc d7bd c33f d0bc c3e6 0cbe e4bb 073d
000000c0: 4e9e b2bc 76cc 7f3c 6595 0ebe 515a fb3d
000000d0: a7c3 f33d cdf2 283d fbbd c2bd b99f 8d3d
000000e0: 13c9 82bd d550 c4bd 3d1a 0f3c 7cda 073e
000000f0: 744c 04bd 2e61 0abb 978e d6bd 214b 0abe
00000100: 4e70 edbd 1151 0ebb b7f3 12bd 0737 323b
00000110: 35cd fcbd 702b 2bbd 6ab7 e63d 3678 ca3d
00000120: bc5a 17be 47e3 0f3e 7a66 ba3d 8ebd f83d
00000130: 6a40 8bbc bb96 aabd 35a5 093e e69f 73bd
00000140: 4ac3 053e a2fd 0d3e 373c dcbd dd1d c03d
00000150: 2591 af3d 9a1b a9bc 10cc 0cbe cbd2 bfbd
00000160: cb58 cd3d a24e 653d b5e5 a5bd b56f e7bd
00000170: a241 adbd 14e6 eb3d a93c ccbd 1a29 01bd
00000180: 56e7 aabd 0f18 2d3d e695 c23d 2ef5 ed3d
00000190: c73e 183d af4d 44bd 5a3f fe3d e686 c13d
000001a0: fc1b 763d 0931 b03d 3da4 0d3e 91f2 0ebe
000001b0: 5ebf 443b db7b fa3d d893 eebd 5bbe 89bd
000001c0: ec82 fbbc e8ac 163e 37fa 123d 2877 613c
000001d0: 46d5 cdbd a032 a13d d396 203e cc96 6cbc
000001e0: f614 17be 62e9 cfbd f0b0 19be d505 9bbd
000001f0: 3efd b9bd db79 24bd 7a52 9c3d 205d a63d
00000200: ce1a df3d c98d 153d 70c0 49bd e536 06be
00000210: ad49 343c 16d5 d3bd 1981 ecbd 2899 d0bd
00000220: 056e bcbd 924b 70bd ccff e3bd 17bc 023e
00000230: 2e5b f3bd 5e5d 93bd 0829 513d 7345 e8bd
00000240: c09c 01be 1f41 dcbd 47ad f83d da46 70bd
00000250: 6987 85bd b40e 1cbe a406 263e ddcb 10be
00000260: 6d71 233e c1aa 70bd 4b6f e53b 234d ccbc
00000270: 0036 d23c c220 80bd aa8b d8bd d397 c2bd
00000280: 4ec8 753d 3827 f63d 84b8 fe3d 12b0 173e
00000290: e299 913d f31d 58bd 24fb 07be b708 5c3b
000002a0: f9c4 f03d f5e4 0f3e 36ce fabd 46df 0e3e
000002b0: de0c 3dbd c91d 0a3e 85a8 2cbd 524d 3cbd
000002c0: 2475 79bd ddf2 8cbd 60bf 20bd bae6 5abd
000002d0: fbe0 28bd 0cd4 15be 22e4 ebbd 7eb0 16be
000002e0: 9834 eebd c807 f5bd 7836 bbbd d909 dabd
000002f0: 17c2 753d c8e7 a13d 1d6f c6bd daf4 033e
00000300: 1a87 333d 56f6 77bd fb7e d23d 4758 153e
00000310: 5db3 eebd cef5 093e b765 0bbd 1a74 11be
00000320: df6f 073e 87d0 14be ad5f cabd a180 e4bd
00000330: 635f a5bc c10c c93d 055a aabd 9f3d 6ebd
00000340: 870e 9fbd 57fb ebbd 6ad2 84bd ad34 01be
00000350: f859 19be e9cf 1c3e b9e1 2abd 4cbb a4bd
00000360: 5da4 0dbe 4a36 0ebe 7cfd ec3d e9e4 a03d
00000370: 8299 cfbd cd0e 47bd ee83 69bd d693 043d
00000380: 8761 963b 8e67 443d f03e 25bd 6ac3 ecbc
00000390: c0c1 b9bd 2aeb fd3d 0751 1abe d2b2 22bd
000003a0: 0f8b b0bd fed6 07be d432 8dbd c183 053e
000003b0: 7293 4cbb 4a0e 09bd 708a b2bd 94b9 8cbd
000003c0: 1e1e b73c d872 0abc b957 6fbd 2245 5ebd
000003d0: cfb8 c0bd a99c 13bd c1e2 aabd 9d75 c4bd
000003e0: 4b01 723d b3b7 803d d57f 193c 13f3 bfbd
000003f0: 4b4c f23d 8b36 5bbd e713 093e 96bf fabd

classifier.2.bias f4 [3]
-0.052100435 -0.030668579 -0.02197471
00000000: 4467 55bd ac3c fbbc 4f04 b4bc

onnx::Conv_71 f4 [16, 1, 3, 3]
-2.4262025 1.7182405 1.6164279 2.2495432 0.6179409 -0.9608248 1.2676889 1.2527145
-1.5115292 -1.9567708 -1.6237388 1.1723722 1.2369955 -2.4807284 2.3317003 2.342246
0.3585487 2.0792274 2.3808827 -1.4050744 -0.9387723 -1.1744297 1.429142 2.7094781
0.9457089 -1.762306 2.2218368 1.1337417 -1.5226856 2.6330945 1.6742406 1.8856744
1.8626515 -2.7142181 0.099326566 -1.7318918 -1.4147274 -0.27540168 1.3698555 -0.2803682
-1.0824163 -1.0561284 -0.5217329 -1.2285124 -0.105491295 1.0239682 1.1980524 -1.8600115
-0.36243042 1.6540408 2.6374657 -1.9115014 -1.2619293 2.5982053 2.4816966 0.8199525
-2.055361 1.417214 -3.4963102 -2.3768487 -3.5314188 2.9253907 0.9997979 0.6759572
-0.41367614 0.47432277 -1.0625124 1.3204405 1.0815347 0.15128624 0.9278929 1.016084
-2.5867975 0.31280488 1.674271 -0.4365071 -0.95938534 -2.6494029 1.41616 -0.10327666
-1.083348 2.1362448 0.81416583 -1.3754383 -1.9821184 -3.9976134 4.765122 -3.4015255
1.9582008 1.5762419 -1.6805564 -2.8164752 0.7875527 -0.76506853 2.5284834 1.8848169
1.1513518 -0.9875407 2.7459755 0.70094824 1.6779377 0.9450309 -1.2939912 0.7352862
1.8153759 -0.0046431627 0.6754763 -1.58888 -2.4578967 2.8920906 2.250625 0.027020479
0.23376332 -1.1695057 -3.9510422 2.9456086 -2.7037754 2.2631981 1.8584756 -1.8333777
-0.8047737 1.0727149 -0.7933428 1.108286 0.21628481 0.904847 -1.1167835 -2.9172506
-1.6278536 2.6121118 -1.1076616 2.2762227 2.1356583 -3.0848458 3.1209428 1.9073759
-1.015242 0.3098764 -1.0330187 0.4892735 -2.3287692 1.7127098 -0.97034174 -2.6493478
00000000: e746 1bc0 4eef db3f 1ce7 ce3f 84f8 0f40
00000010: 6031 1e3f 9df8 75bf a143 a23f f358 a03f
00000020: ca79 c1bf 7777 fabf acd6 cfbf 4b10 963f
00000030: de55 9e3f 41c4 1ec0 943a 1540 5ce7 1540
00000040: b293 b73e 1012 0540 6260 1840 7ad9 b3bf
00000050: 6253 70bf b653 96bf 20ee b63f 1768 2d40
00000060: fa19 723f 3e93 e1bf 9332 0e40 731e 913f
00000070: 5de7 c2bf 9f84 2840 844d d63f c75d f13f
00000080: 5d6b ee3f c0b5 2dc0 ba6b cb3d a1ae ddbf
00000090: ca15 b5bf 7301 8dbe 6d57 af3f 6c8c 8fbe
000000a0: 9e8c 8abf 372f 87bf 4a90 05bf e53f 9dbf
000000b0: d20b d8bd 6411 833f c859 993f db14 eebf
000000c0: 7b90 b9be 9cb7 d33f 3dcc 2840 14ac f4bf
000000d0: e686 a1bf ff48 2640 1ed4 1e40 68e8 513f
000000e0: 098b 03c0 4567 b53f 8cc3 5fc0 4a1e 18c0
000000f0: c402 62c0 9a39 3b40 c1f2 7f3f 880b 2d3f
00000100: 5ccd d3be 6fda f23e 6800 88bf 3204 a93f
00000110: bb6f 8a3f c8ea 1a3e 648a 6d3f 0a0f 823f
00000120: 178e 25c0 f627 a03e 834e d63f dc7d dfbe
00000130: 479a 75bf d18f 29c0 bb44 b53f b782 d3bd
00000140: 26ab 8abf 3cb8 0840 2c6d 503f 5d0e b0bf
00000150: 0eb6 fdbf e6d8 7fc0 e17b 9840 98b2 59c0
00000160: 53a6 fa3f 4bc2 c93f 791c d7bf 2141 34c0
00000170: 0e9d 493f 88db 43bf acd2 2140 ae41 f13f
00000180: 7f5f 933f 78cf 7cbf 10be 2f40 5871 333f
00000190: aac6 d63f 8ced 713f 81a1 a5bf b73b 3c3f
000001a0: 3d5e e83f ac25 98bb 04ec 2c3f 6b60 cbbf
000001b0: 2e4e 1dc0 0318 3940 3d0a 1040 0d5a dd3c
000001c0: a75f 6f3e 5db2 95bf e0dd 7cc0 da84 3c40
000001d0: a80a 2dc0 3dd8 1040 87e2 ed3f 1fac eabf
000001e0: a605 4ebf b94e 893f 8418 4bbf 51dc 8d3f
000001f0: c479 5d3e 0ea4 673f c3f2 8ebf 3cb4 3ac0
00000200: 825d d0bf d72c 2740 dbc7 8dbf a2ad 1140
00000210: a0ae 0840 1d6e 45c0 87bd 4740 e524 f43f
00000220: 73f3 81bf 1fa8 9e3e f539 84bf 0e82 fa3e
00000230: 8e0a 15c0 133a db3f 5168 78bf ea8e 29c0

onnx::Conv_72 f4 [16]
1.7580953 1.5975665 1.9808428 1.4241618 -2.0732787 1.7001647 -1.35151 1.9319167
-1.9461399 0.18390505 1.3459238 1.673455 -0.86353326 1.788368 0.11403816 -1.67285
00000000: 4409 e13f 0f7d cc3f 428c fd3f ef4a b63f
00000010: 99b0 04c0 ff9e d93f 48fe acbf 0c49 f73f
00000020: 1d1b f9bf 9b51 3c3e 3b47 ac3f c633 d63f
00000030: 8410 5dbf 3ee9 e43f d78c e93d f31f d6bf

onnx::Conv_74 f4 [16, 1, 3, 3]
0.4302221 0.21337786 -0.760526 0.59070456 0.45509288 0.80741376 0.57934046 -0.13841961
-0.7593487 0.02680104 0.23922394 -0.5027716 -0.5579311 -0.4898088 -0.37946966 0.16918895
-0.19391432 -0.48509985 -0.5197841 0.53239536 -0.87592447 1.2265784 0.52210265 -0.57579947
-0.5709343 0.743661 -0.12559035 -0.82953924 -1.1597681 0.52699375 0.7237947 0.22385289
-0.3456219 0.14560513 -0.91840965 0.7977763 -2.0306213 -0.51339346 2.4319777 0.7898479
1.7031115 -2.8019614 -0.1469979 -1.810682 2.606172 -0.44094115 0.37534365 -0.5445726
-0.97006184 -0.07319921 -0.42346075 0.16771288 0.71784127 1.181126 -0.5996227 0.6143126
0.18035446 -1.1062641 -1.0375768 1.2164701 1.3141841 -0.9811986 -0.7101266 -0.59725857
0.55956554 -0.02918586 0.7954709 -0.3932505 0.5744319 -0.3982611 1.191764 0.070460945
-0.30378845 -0.22363172 0.48064774 -0.3053083 -0.38505992 -0.10510789 -0.5876566 -0.51525867
-0.10587546 -1.0505996 0.32864952 -0.06898399 -0.19148184 -0.44205114 -0.29080185 0.7320378
-0.8472329 0.11983526 0.6396039 0.009444233 0.039350186 0.27676335 0.6882414 0.27464408
0.4210466 -0.22021045 0.2035867 -0.43800583 0.5874455 0.011411727 -0.51350385 0.31763664
0.47964427 0.047527827 0.66445774 0.57932216 1.2545544 0.7916744 -0.7522779 0.6879116
-1.4918051 0.8196656 -0.84713197 0.70706767 -1.1893102 -0.40074688 0.76442933 -0.61960995
1.4307039 0.8465491 -0.19836114 -1.2270077 -0.062483065 -0.78217095 0.3865919 -0.60866207
-1.0083694 0.03334179 -0.8544683 0.018613206 -1.1583363 0.38557285 -0.61551964 -0.30093676
-0.51126206 -0.3911898 0.24282286 -0.56157154 -0.7438687 -0.16114832 -0.47953093 0.5086872
00000000: 1246 dc3e ba7f 5a3e d5b1 42bf 6a38 173f
00000010: ef01 e93e abb2 4e3f a84f 143f dfbd 0dbe
00000020: ad64 42bf db8d db3c 1ff7 743e a4b5 00bf
00000030: 93d4 0ebf 38c8 fabe d949 c2be de3f 2d3e
00000040: 7a91 46be 025f f8be 9210 05bf 104b 083f
00000050: 963c 60bf 8500 9d3f 85a8 053f 9867 13bf
00000060: c028 12bf 9160 3e3f c29a 00be af5c 54bf
00000070: 4873 94bf 10e9 063f 9c4a 393f b139 653e
00000080: 5bf5 b0be 8319 153e e51c 6bbf 113b 4c3f
00000090: b3f5 01c0 c16d 03bf 86a5 1b40 7933 4a3f
000000a0: 8fff d93f 5653 33c0 9e86 16be 6ec4 e7bf
000000b0: 86cb 2640 0ac3 e1be 0b2d c03e 1c69 0bbf
000000c0: f955 78bf 78e9 95bd d9cf d8be edbc 2b3e
000000d0: 72c4 373f 232f 973f e080 19bf 9743 1d3f
000000e0: d7ae 383e 109a 8dbf 51cf 84bf 4bb5 9b3f
000000f0: 2f37 a83f d52f 7bbf dbca 35bf f0e5 18bf
00000100: b03f 0f3f 2f17 efbc fba3 4b3f 2158 c9be
00000110: f80d 133f e1e8 cbbe b98b 983f d44d 903d
00000120: 298a 9bbe b7ff 64be 7617 f63e 5f51 9cbe
00000130: 9326 c5be ce42 d7bd aa70 16bf fee7 03bf
00000140: 3cd5 d8bd 0c7a 86bf c044 a83e 7a47 8dbd
00000150: d113 44be 8754 e2be fbe3 94be d466 3b3f
00000160: 41e4 58bf 306c f53d 15bd 233f fcbb 1a3c
00000170: a92d 213d edb3 8d3e 9730 303f 269e 8c3e
00000180: 6c93 d73e d97e 61be 0879 503e 4d42 e0be
00000190: d462 163f 41f8 3a3c fd74 03bf 45a1 a23e
000001a0: ef93 f53e 8aac 423d e719 2a3f 754e 143f
000001b0: 3d95 a03f 2cab 4a3f 4995 40bf fa1a 303f
000001c0: 78f3 bebf 9bd5 513f a4dd 58bf 6302 353f
000001d0: 513b 98bf b22e cdbe a4b1 433f c29e 1ebf
000001e0: 4e21 b73f 71b7 583f 2f1f 4bbe 970e 9dbf
000001f0: 3eee 7fbd 5b3c 48bf 60ef c53e 47d1 1bbf
00000200: 4012 81bf 6791 083d 6fbe 5abf b97a 983c
00000210: 5d44 94bf ce69 c53e b292 1dbf 6214 9abe
00000220: 12e2 02bf 084a c8be 8ea6 783e 27c3 0fbf
00000230: 2e6e 3ebf 1104 25be 1485 f5be 5339 023f

onnx::Conv_75 f4 [16]
-0.42887518 0.84843385 -0.18314591 0.17687486 -0.14695582 -0.04941409 0.30394623 -0.56073296
0.8142178 0.4227504 -0.74732155 -0.5912607 -0.037162736 -0.09352499 0.80961466 0.9328608
00000000: 8795 dbbe f632 593f 9a8a 3bbe af1e 353e
00000010: 967b 16be 6e66 4abd d79e 9b3e 328c 0fbf
00000020: 9470 503f be72 d83e 7750 3fbf dc5c 17bf
00000030: f437 18bd 088a bfbd e842 4f3f f7cf 6e3f

onnx::Conv_77 f4 [32, 16, 1, 1]
0.12545829 -0.60758764 0.26509684 0.2967259 0.008529154 0.28338653 -0.08280938 0.41603997
-0.06986173 -0.05225762 0.44231328 -0.26217043 -0.1402203 0.03342936 0.33643448 -0.067272455
-0.5294212 0.4807582 -0.67400414 -0.11335664 -0.4823304 -0.20514375 0.12036384 0.30493566
-0.14510503 0.26336542 0.27372625 -0.5350202 0.21775514 -0.15568401 0.35257614 -0.47128218
0.4672263 -0.14925641 -0.12525852 0.61121875 0.76000047 -0.044269554 0.27860028 0.25538433
-0.44948295 0.3243362 -0.6593798 0.9167782 -0.56807417 -0.22802387 -0.3351412 -0.5629273
0.5009551 -0.41728142 0.53157115 -0.40936613 0.056516834 0.007120276 -0.12421157 -0.40588573
-0.06284857 -0.37344125 -0.34557807 -0.23196842 0.4684909 0.31228083 -0.048382193 -0.20776184
-0.47932354 -0.3956179 0.07551211 0.19598119 0.43862498 -0.13351677 -0.061230432 -0.14412707
-0.406219 -0.4201306 -0.38922226 -0.2290002 0.21399103 -0.4931628 -0.21390392 0.091245644
-0.6020718 -0.5059472 0.2371508 0.2614667 -0.46535513 0.5072758 -0.05053079 -0.025337001
-0.19948731 0.38651687 -0.04427529 -0.22465175 0.48619482 -0.6722584 0.62653303 -0.38246292
-0.04214814 0.40364248 0.37369627 -0.16011469 -0.45055747 -0.44520202 0.03196688 -0.040892925
0.53149384 -0.20456968 0.8752761 0.13410723 -0.098242946 -0.501405 -0.39493248 -0.19331822
0.5940056 -0.26790798 0.6834501 -0.19543621 0.26838115 0.30501252 0.45149976 -0.1663419
-0.19918549 0.075103134 -0.5362074 -0.29248405 0.5892104 -0.5544218 -0.6641799 -0.5125626
-0.6206076 -0.30341658 0.114239104 0.34783262 -0.29658744 0.20205721 -0.45510668 0.4167455
-0.2588717 -0.4079145 0.77310055 -0.25336674 -0.311734 0.488061 -0.33727926 -0.67655164
0.71471167 0.29810023 0.49974602 -0.20689918 -0.038194034 0.5503505 0.45005146 0.34566098
0.19100723 -0.2536741 0.012563272 -0.62644035 -0.5097407 -0.21071196 -0.5524088 -0.74298096
-0.564492 0.082736775 -0.16650216 -0.54202837 -0.09229717 0.21344757 -0.12852988 -0.3473307
-0.4889567 0.23131837 -0.09136992 -0.074325286 -0.3236973 0.50015813 -0.18077889 -0.5876328
0.38790405 0.03622923 -0.377347 -0.4591076 0.06331157 -0.46179593 -0.35537612 0.46808478
-0.183465 0.1455932 0.04134502 0.18475968 -0.31196484 -0.5171323 0.4904421 0.5188405
-0.59126127 0.47389448 0.5508949 0.012823947 -0.49852198 0.58904165 -0.23598014 -0.53789824
-0.6106501 -0.08624619 0.18672271 -0.08466167 0.20287247 0.48093754 -0.17484634 -0.5885628
-0.44583392 0.48878005 0.01635206 -0.38228798 -0.11086059 0.7716078 -0.394478 0.5970792
0.48134875 0.4924394 0.21302912 -0.44660118 -0.54901046 0.28582215 -0.50484055 0.2901529
-0.21950567 -0.5690318 0.124872394 0.030176459 -0.3037171 0.29145244 -0.3100788 0.029101392
-0.21738386 0.5144385 0.6161599 0.27180427 -0.11312434 -0.32080552 -0.09549195 0.18983285
0.48587376 0.056639623 0.3540595 -0.06288206 0.00012378827 0.4110244 0.3782322 -0.3093422
-0.27508166 0.028382048 0.66295546 0.18225664 -0.62540984 -0.2240186 -0.00850465 -0.5652692
00000000: 2378 003e dd8a 1bbf c6ba 873e 75ec 973e
00000010: ddbd 0b3c 0a18 913e f797 a9bd 3103 d53e
00000020: ab13 8fbd 160c 56bd e376 e23e 343b 86be
00000030: e995 0fbe 39ed 083d 2441 ac3e 24c6 89bd
00000040: 2688 07bf f025 f63e 898b 2cbf 8727 e8bd
00000050: 03f4 f6be 3411 52be 5181 f63d 8720 9c3e
00000060: 6a96 14be d5d7 863e d925 8c3e 15f7 08bf
00000070: 34fb 5e3e a16b 1fbe dc84 b43e e64b f1be
00000080: 4938 ef3e acd6 18be c543 00be d578 1c3f
00000090: 648f 423f fe53 35bd b2a4 8e3e bcc1 823e
000000a0: a122 e6be 650f a63e 1dcd 28bf fab1 6a3f
000000b0: 4f6d 11bf 177f 69be a197 abbe 011c 10bf
000000c0: 983e 003f e9a5 d5be 0c15 083f 7098 d1be
000000d0: 327e 673d 3451 e93b a362 febd 41d0 cfbe
000000e0: c0b6 80bd b133 bfbe 9cef b0be 2189 6dbe
000000f0: 0ade ef3e 46e3 9f3e 682c 46bd 85bf 54be
00000100: e569 f5be 6e8e cabe 18a6 9a3d 4baf 483e
00000110: 7493 e03e 9fb8 08be c3cc 7abd 0c96 13be
00000120: f0fb cfbe 5c1b d7be 2448 c7be 077f 6abe
00000130: 7720 5b3e d67f fcbe a109 5bbe ffde ba3d
00000140: 6121 1abf c185 01bf a9d7 723e f7de 853e
00000150: 0743 eebe d4dc 013f 60f9 4ebd 8b8f cfbc
00000160: 6746 4cbe 8ae5 c53e 025a 35bd 1c0b 66be
00000170: 87ee f83e 2019 2cbf 7864 203f 2ed2 c3be
00000180: 87a3 2cbd 3aaa ce3e 1e55 bf3e 1bf5 23be
00000190: 78af e6be 85f1 e3be b4ef 023d 577f 27bd
000001a0: fb0f 083f b77a 51be 1812 603f 6853 093e
000001b0: 9933 c9bd 145c 00bf 9734 cabe 36f5 45be
000001c0: c010 183f 3c2b 89be 96f6 2e3f 6e20 48be
000001d0: 4169 893e 9a2a 9c3e fa2a e73e 8855 2abe
000001e0: 48f7 4bbe accf 993d e344 09bf 78c0 95be
000001f0: 7ed6 163f 96ee 0dbf b207 2abf 4d37 03bf
00000200: 24e0 1ebf 6b59 9bbe 31f6 e93d 1e17 b23e
00000210: 4fda 97be 16e8 4e3e be03 e9be ab5f d53e
00000220: d58a 84be 2bda d0be ebe9 453f 49b9 81be
00000230: 999b 9fbe 22e3 f93e deaf acbe 7d32 2dbf
00000240: 58f7 363f 98a0 983e b6de ff3e 61dd 53be
00000250: 5971 1cbd c5e3 0c3f 256d e63e 7afa b03e
00000260: 6697 433e 92e1 81be 2fd6 4d3c 655e 20bf
00000270: 5e7e 02bf e0c4 57be aa6a 0dbf 0034 3ebf
00000280: 8c82 10bf e671 a93d 8b7f 2abe 5fc2 0abf
00000290: 4c06 bdbd 0092 5a3e 569d 03be 54d5 b1be
000002a0: 8858 fabe b9de 6c3e 2720 bbbd db37 98bd
000002b0: a7bb a5be 5d0a 003f 1a1e 39be 1a6f 16bf
000002c0: 5c9b c63e 1a65 143d a033 c1be 2710 ebbe
000002d0: 7fa9 813d 8470 ecbe dcf3 b5be cfa8 ef3e
000002e0: 40de 3bbe 6216 153e 6559 293d a431 3d3e
000002f0: dbb9 9fbe c862 04bf 3a1b fb3e bbd2 043f
00000300: e65c 17bf 4ca2 f23e 7307 0d3f 881b 523c
00000310: 463e ffbe 6fcb 163f c7a4 71be b3b3 09bf
00000320: 9153 1cbf d8a1 b0bd 3d34 3f3e 1963 adbd
00000330: cdbd 4f3e 723d f63e eb0a 33be 0dac 16bf
00000340: 5844 e4be 6141 fa3e c1f4 853c 40bb c3be
00000350: e10a e3bd 1788 453f 05f9 c9be 2fda 183f
00000360: 5873 f63e 0421 fc3e 4e24 5a3e e9a8 e4be
00000370: f38b 0cbf 4857 923e 3b3d 01bf ec8e 943e
00000380: 18c6 60be 11ac 11bf 19bd ff3d 9f34 f73c
00000390: cf80 9bbe 4139 953e a6c2 9ebe 0b66 ee3c
000003a0: e099 5ebe 3eb2 033f a8bc 1d3f ee29 8b3e
000003b0: bcad e7bd 9f40 a4be 4991 c3bd 8b63 423e
000003c0: 72c4 f83e f3fe 673d 4947 b53e 4fc8 80bd
000003d0: 29cd 0139 ca71 d23e a7a7 c13e 1a62 9ebe
000003e0: 81d7 8cbe 7881 e83c 73b7 293f 7ca1 3a3e
000003f0: dc1a 20bf 2265 65be 1657 0bbc 7bb5 10bf

onnx::Conv_78 f4 [32]
-0.19346906 0.44052783 0.028232567 0.2790697 0.9547266 0.32576948 -0.044078726 0.37906626
0.650839 0.06838417 1.0051881 -0.015656646 0.42387077 -0.42053676 0.045461588 -0.12266932
-1.0379323 0.19873111 0.677591 0.05760279 -0.46380225 -1.1235136 -0.59679943 0.13320191
0.11128864 -0.6085246 -0.04514247 -0.07522084 -1.0589981 -0.73809826 -0.37741455 -0.33927307
00000000: c11c 46be dd8c e13e fc47 e73c 39e2 8e3e
00000010: f668 743f 42cb a63e e58b 34bd f914 c23e
00000020: 629d 263f 000d 8c3d 01aa 803f 5e42 80bc
00000030: 9705 d93e 9850 d7be ee35 3a3d 0d3a fbbd
00000040: f7da 84bf 2b80 4b3e 9b76 2d3f e7f0 6b3d
00000050: 7d77 edbe 4bcf 8fbf d9c7 18bf 1566 083e
00000060: 4ceb e33d 45c8 1bbf 50e7 38bd 620d 9abd
00000070: 408d 87bf 02f4 3cbf 7b3c c1be 33b5 adbe

onnx::Conv_80 f4 [32, 1, 3, 3]
-0.74986774 -0.95665467 0.7023676 -0.016496135 0.06463044 0.7195022 0.5971232 -0.40221807
-0.09649103 -0.6868258 -1.5986884 -1.0115266 0.88186824 0.5765662 1.078656 -0.44450986
-0.06270125 0.542502 -0.016551908 -0.49253914 -0.2217037 -0.20317024 -0.53237474 -0.573256
-0.23604318 -0.4252048 0.3346966 -1.4502578 -0.039984126 -0.37689 -0.27295014 0.47678962
0.8718742 0.059684925 -0.862419 0.19663061 -0.39252797 -1.0486249 0.33702683 -1.3839378
-0.44798464 0.72852725 -0.40782213 0.84036547 -0.67709434 -0.7605288 0.7351184 0.9981646
0.7510311 1.0336971 -0.29289445 0.06928717 -0.2289956 0.57107395 0.69416946 -0.5469015
-0.66050845 -0.010472406 0.64322317 -0.28684643 0.23720306 0.17753972 -0.2687802 0.40342075
0.28780377 0.2824349 0.6219151 -0.017435577 0.53105927 -0.93949586 0.53338075 0.13614148
-0.1857452 -0.6479475 -0.015531751 0.7438962 0.640406 0.75462955 -0.4067968 0.17593817
-0.40011102 -0.28301772 0.025087668 0.17554358 -0.16267538 -0.5523074 0.69171274 -0.5396162
0.4319494 0.5707112 -1.2094184 1.2281582 -0.011323738 1.2152772 0.5979277 0.71953183
-1.2164751 0.3745477 -1.5636451 -0.3523182 0.04050645 0.7637604 -0.5441818 -0.72086704
0.84573096 0.2996019 0.33207688 0.4805086 0.87255895 0.6380151 0.49586508 1.1449318
-0.614363 -0.4278681 0.34807187 0.20662674 0.693084 -0.11999017 -0.33589736 0.6777352
-0.22233748 0.9269042 0.41543257 -0.015827509 0.78348035 -0.85187346 0.35633522 0.08379673
0.5156138 -0.2995819 0.13583003 0.811985 -0.50116706 0.5335618 -0.75658995 -0.64333254
-0.19412364 0.06387883 0.62121934 -0.54998136 -0.40547824 -0.008591971 -0.2860025 -0.3941794
-0.49414375 0.30131096 0.690976 -0.5907429 -0.65268373 -0.19683969 0.14547585 0.082004465
-0.51006806 -1.1942034 0.47577012 -1.3316743 0.5430331 0.4100116 -0.027845733 -0.050473824
-1.3376403 0.17408714 0.052264005 -0.64568335 0.09626872 0.32431272 0.10839359 1.1200019
-0.78000695 -0.19452436 0.4442036 0.77346104 -0.013084015 0.03783525 0.8520129 -0.7389613
-0.7161127 0.11827906 -0.025115862 0.5635545 0.12589678 -0.018919615 0.15630853 0.11035465
0.31266353 0.6301502 -0.4907289 -0.9587624 0.9042932 -0.006618496 0.6947398 0.8283139
-0.55207115 0.2440539 -0.2930935 0.8254241 -0.55882174 0.1090761 0.37749782 0.39665377
0.18322974 0.8782714 0.48228028 0.32569337 -0.6628208 -0.6858451 -0.8350334 -0.12547362
-0.28211245 -0.51749796 -0.64535683 0.28846067 -0.35723764 0.6288187 0.33052936 0.63840765
-0.063292004 -0.23104125 0.8577563 0.3988033 -0.4172705 0.9698926 -0.050939877 1.058756
0.7560959 0.923825 0.02754292 -0.53108424 -0.17476122 0.18379425 -0.33023646 -0.72648305
0.035569027 -0.61062187 0.54390764 0.7140045 0.55122787 0.6194121 -0.30972838 -0.27476028
0.48542005 0.7682693 0.7292109 -0.48695603 0.30289465 0.19530763 -0.91342396 -0.04148817
0.3270797 -0.9726324 0.23916492 -0.7573486 -0.8822789 0.72764313 -0.58046293 0.4445678
00000000: 55f7 3fbf 52e7 74bf 5dce 333f e722 87bc
00000010: f75c 843d 4c31 383f 11dd 183f 87ef cdbe
00000020: 179d c5bd d1d3 2fbf d2a1 ccbf b479 81bf
00000030: 1ec2 613f d899 133f 6611 8a3f cc96 e3be
00000040: 8369 80bd 69e1 0a3f de97 87bc 172e fcbe
00000050: 4b06 63be dc0b 50be b649 08bf e8c0 12bf
00000060: 4eb5 71be 72b4 d9be 5a5d ab3e 0ca2 b9bf
00000070: 65c6 23bd baf7 c0be 1fc0 8bbe c51d f43e
00000080: 2633 5f3f 2e78 743d 7ec7 5cbf 8959 493e
00000090: 6df9 c8be 5739 86bf c88e ac3e e024 b1bf
000000a0: 3e5e e5be c380 3a3f 10ce d0be 3122 573f
000000b0: 0e56 2dbf 04b2 42bf b830 3c3f b787 7f3f
000000c0: 9343 403f 3050 843f 43f6 95be 6fe6 8d3d
000000d0: d37d 6abe e731 123f 17b5 313f bd01 0cbf
000000e0: 1517 29bf 7494 2bbc 46aa 243f 89dd 92be
000000f0: 5ce5 723e f9cc 353e 8f9d 89be 2a8d ce3e
00000100: 045b 933e 4f9b 903e d435 1f3f 0ed5 8ebc
00000110: 80f3 073f cd82 70bf a48b 083f ac68 0b3e
00000120: fd33 3ebe e3df 25bf e378 7ebc fb6f 3e3f
00000130: a6f1 233f 672f 413f ac47 d0be 2329 343e
00000140: 5adb ccbe b3e7 90be a784 cd3c b2c1 333e
00000150: 6094 26be 0564 0dbf 1614 313f 4a24 0abf
00000160: 7928 dd3e 211a 123f 39ce 9abf 4a34 9d3f
00000170: 3387 39bc 348e 9b3f ca11 193f 3d33 383f
00000180: 75b5 9bbf b7c4 bf3e 8625 c8bf 0d63 b4be
00000190: 17ea 253d cd85 433f 804f 0bbf be8a 38bf
000001a0: d381 583f 6c65 993e fb05 aa3e 3905 f63e
000001b0: 0660 5f3f f554 233f 07e2 fd3e 208d 923f
000001c0: e546 1dbf 8711 dbbe 7a36 b23e f695 533e
000001d0: f46d 313f 68bd f5bd bdfa abbe 0e80 2d3f
000001e0: 70ac 63be 9849 6d3f 94b3 d43e b1a8 81bc
000001f0: 2b92 483f 6114 5abf 9271 b63e 9f9d ab3d
00000200: 44ff 033f cc62 99be 0717 0b3e 40de 4f3f
00000210: 7c4c 00bf 8297 083f e1af 41bf 71b1 24bf
00000220: 59c8 46be e7d2 823d 3b08 1f3f 94cb 0cbf
00000230: d89a cfbe 57c5 0cbc eb6e 92be e2d1 c9be
00000240: 6900 fdbe 6e45 9a3e cee3 303f ed3a 17bf
00000250: 4816 27bf 5890 49be 9ff7 143e f5f1 a73d
00000260: d293 02bf a8db 98bf 2498 f33e 4e74 aabf
00000270: 3804 0b3f 0aed d13e bc1c e4bc a4bd 4ebd
00000280: cc37 abbf e643 323e c812 563d 814b 25bf
00000290: 8928 c53d 510c a63e 75fd dd3d 395c 8f3f
000002a0: 89ae 47bf 6531 47be a76e e33e 8b01 463f
000002b0: 565e 56bc 23f9 1a3d 841d 5a3f 912c 3dbf
000002c0: 2953 37bf 4b3c f23d c8bf cdbc 1c45 103f
000002d0: 16eb 003e 4ffd 9abc 580f 203e 9e01 e23d
000002e0: 6f15 a03e 8651 213f d240 fbbe 7471 75bf
000002f0: c27f 673f f8df d8bb 78da 313f 610c 543f
00000300: 8954 0dbf 44e9 793e 5a10 96be fe4e 533f
00000310: f10e 0fbf 4a63 df3d 6547 c13e 3416 cb3e
00000320: 94a0 3b3e 65d6 603f 71ed f63e 48c1 a63e
00000330: a0ae 29bf 8b93 2fbf c0c4 55bf 287c 00be
00000340: 0b71 90be bf7a 04bf 1b36 25bf 1eb1 933e
00000350: dae7 b6be 43fa 203f 253b a93e af6e 233f
00000360: 3d9f 81bd 1496 6cbe eb95 5b3f f22f cc3e
00000370: 7ba4 d5be e24a 783f 55a6 50bd 5185 873f
00000380: 808f 413f cc7f 6c3f b1a1 e13c 23f5 07bf
00000390: 9bf4 32be 8f34 3c3e c114 a9be cbfa 39bf
000003a0: d4b0 113d b751 1cbf 883d 0b3f 00c9 363f
000003b0: 451d 0d3f cb91 1e3f b894 9ebe 61ad 8cbe
000003c0: fa88 f83e 4cad 443f 91ad 3a3f 4d52 f9be
000003d0: 0215 9b3e b9fe 473e 27d6 69bf 80ef 29bd
000003e0: fe76 a73e 70fe 78bf a6e7 743e 99e1 41bf
000003f0: 08dd 61bf d246 3a3f 3899 14bf 649e e33e

onnx::Conv_81 f4 [32]
-0.0071419887 0.15126982 0.88345224 0.18551657 0.7311738 -0.9384618 0.012891769 -0.65871114
-0.37479347 -0.16893104 -0.29734284 -0.4321609 -0.85878104 -0.39478636 -0.2994317 0.5861553
0.37005663 0.6399591 -0.37147987 -0.27298933 -0.26996577 -0.21046528 -0.2848871 -0.028773978
-1.2044687 0.54249763 -1.1742622 0.7334557 0.072830044 -0.38658094 -0.010497506 -0.2955723
00000000: 5807 eabb 7ae6 1a3e ed29 623f 0ef8 3d3e
00000010: 352e 3b3f 083f 70bf 0038 533c 4ba1 28bf
00000020: eee4 bfbe 42fc 2cbe 523d 98be 3244 ddbe
00000030: 13d9 5bbf 7021 cabe 1d4f 99be 460e 163f
00000040: 1078 bd3e 5cd4 233f 9c32 bebe 42c5 8bbe
00000050: f438 8abe 3684 57be b9dc 91be 68b7 ebbc
00000060: 082c 9abf 20e1 0a3f 394e 96bf c1c3 3b3f
00000070: eb27 953d f0ed c5be bbfd 2bbc 4155 97be

onnx::Conv_83 f4 [64, 32, 1, 1]
-0.44156945 -0.20564874 0.39496574 0.25451323 -0.33269647 0.023138454 -0.1001959 0.12829351
-0.04973192 0.32884648 -0.19056621 0.1819434 0.14887498 -0.039981347 -0.37977126 -0.41521996
0.07581025 0.114335015 -0.20980486 0.1161546 0.13034451 -0.103616245 -0.3880115 0.19853403
0.17166074 -0.39312482 0.11803516 -0.111286946 -0.13783537 -0.28990185 -0.22516787 0.34737068
-0.1449645 0.3766123 -0.20822677 -0.18211399 0.45978734 0.29959232 0.09539275 -0.28737256
-0.34085426 -0.046864875 0.16664073 0.43027946 0.40957066 0.30524355 -0.22272292 0.04809933
-0.39918324 -0.05272974 0.043919668 0.05417977 -0.22525893 0.3331506 -0.114354014 0.033711348
0.46343154 -0.59095365 -0.0877676 0.11831151 -0.017300846 0.2244545 0.3095385 0.10909653
0.20113027 -0.19119738 -0.26653886 0.32014573 0.28176913 -0.03193619 0.25177047 0.42469412
-0.18448772 0.21319503 0.2985607 0.29068962 0.35500118 0.1315332 0.16597246 0.16515028
0.26384383 0.17258897 -0.11766632 -0.102892466 -0.0423653 -0.009706779 0.15317406 0.3910295
0.19430083 -0.25995445 -0.2513245 0.14507206 0.29468957 -0.14242315 -0.18452059 0.03543708
0.19669592 -0.17951868 -0.08889205 0.07475825 -0.11187102 0.46858943 0.4059888 0.35021788
0.06654182 0.2822869 0.16351491 0.17564954 -0.15555339 -0.42156854 0.038191482 -0.072279066
-0.124757715 -0.124180034 0.15791343 -0.1421435 -0.5316934 0.1284488 -0.18717723 -0.14564554
-0.22219858 0.102615625 0.4786222 -0.009463773 0.47743952 0.027545413 0.25583565 0.31215283
-0.32940197 -0.25194153 -0.03888563 0.26421902 -0.38712847 -0.051691256 0.10465392 0.09392982
0.018485593 -0.21221286 -0.24482612 -0.13829747 -0.28618497 -0.11941974 -0.19370683 -0.06352542
-0.042461637 0.14307967 0.03291192 0.298029 -0.1150042 -0.11796742 -0.09716419 -0.27647227
0.07793837 0.2977639 0.12963316 0.16411729 0.035809286 -0.22006184 -0.25012895 -0.14223978
-0.35777712 -0.36041734 -0.15781164 0.2575828 0.29260984 -0.2305075 0.27741697 0.0630766
-0.33804867 -0.02876183 -0.29011518 0.39253876 0.31308404 -0.3451417 -0.1589338 0.2529004
0.5095323 0.049965534 0.21249276 -0.020102888 0.23648854 0.14840098 -0.0401654 -0.53010625
-0.08216663 -0.25110376 0.045688193 0.29047197 -0.2861992 0.4069572 -0.0540294 -0.39990246
0.021798052 0.2341394 0.21603432 0.006349094 0.36331096 0.23267983 -0.15644221 -0.39374167
0.58048725 -0.25887138 -0.0817055 0.3059025 0.3747921 -0.08435204 -0.30022871 0.07048769
0.20552713 -0.27813682 0.109253615 0.07765189 0.5166852 -0.08170851 -0.16768874 -0.48700133
-0.1635573 -0.28224942 -0.25053233 0.12069613 0.030134564 -0.29124904 -0.016812535 0.26788342
-0.13873512 -0.118874446 0.11255134 0.19662046 0.1301844 0.09574296 0.021488277 0.20090096
0.15197115 0.21146192 -0.13869308 0.1615729 0.15537241 -0.34060153 -0.3169742 0.14034252
0.33966365 0.19082348 -0.1531288 0.16632044 0.33334857 0.18557256 -0.25775295 0.27331337
0.28781927 -0.3748467 0.4035736 -0.10511526 -0.20706755 -0.0043151085 0.10961358 0.055539295
00000000: 6415 e2be 9595 52be f338 ca3e 8f4f 823e
00000010: 3157 aabe db8c bd3c 8233 cdbd 605f 033e
00000020: b3b3 4bbd 915e a83e ca23 43be 5f4f 3a3e
00000030: af72 183e 7bc3 23bd 6171 c2be b697 d4be
00000040: 6842 9b3d 7a28 ea3d 16d7 56be 77e2 ed3d
00000050: 0879 053e c134 d4bd 71a9 c6be 814c 4b3e
00000060: d5c7 2f3e a847 c9be 6bbc f13d 69ea e3bd
00000070: b724 0dbe 046e 94be 6892 66be 92da b13e
00000080: 9371 14be 54d3 c03e 6639 55be 177c 3abe
00000090: 3f69 eb3e 2a64 993e 465d c33d 7f22 93be
000000a0: 7384 aebe 62f5 3fbd dea3 2a3e 974d dc3e
000000b0: 3fb3 d13e e248 9c3e 7a11 64be ce03 453d
000000c0: bf61 ccbe 24fb 57bd 1ce5 333d 9beb 5d3d
000000d0: 47aa 66be b792 aa3e 7032 eabd e914 0a3d
000000e0: e646 ed3e bd48 17bf 80bf b3bd 4e4d f23d
000000f0: 81ba 8dbc 67d7 653e d57b 9e3e 006e df3d
00000100: 18f5 4d3e 3fc9 43be c877 88be 24ea a33e
00000110: 0b44 903e 86cf 02bd 0fe8 803e 8271 d93e
00000120: 59ea 3cbe cc4f 5a3e f3dc 983e 45d5 943e
00000130: b7c2 b53e a4b0 063e aff4 293e 281d 293e
00000140: 8a16 873e 2abb 303e 0afb f0bd 49b9 d2bd
00000150: 3d87 2dbd 2f09 1fbc a9d9 1c3e 0535 c83e
00000160: ccf6 463e c018 85be 9bad 80be c58d 143e
00000170: 8de1 963e 60d7 11be f7f2 3cbe 7926 113d
00000180: a86a 493e bfd3 37be 090d b6bd da1a 993d
00000190: a21c e5bd f4ea ef3e c4dd cf3e c24f b33e
000001a0: 1447 883d e987 903e 7470 273e 79dd 333e
000001b0: 6349 1fbe d5d7 d7be ac6e 1c3d 0c07 94bd
000001c0: f980 ffbd 1a52 febd 0fb4 213e 118e 11be
000001d0: 0f1d 08bf 1588 033e 63ab 3fbe 1b24 15be
000001e0: 0688 63be 2428 d23d f80d f53e f10d 1bbc
000001f0: f472 f43e eba6 e13c e4fc 823e 7fd2 9f3e
00000200: 60a7 a8be 7bfe 80be 8a46 1fbd b747 873e
00000210: b435 c6be 36ba 53bd cb54 d63d 475e c03d
00000220: 196f 973c 544e 59be b3b3 7abe da9d 0dbe
00000230: d686 92be 5692 f4bd 155b 46be 9e19 82bd
00000240: 41ec 2dbd 7a83 123e a6ce 063d 4297 983e
00000250: 5287 ebbd e798 f1bd 05fe c6bd c68d 8dbe
00000260: 279e 9f3d 8374 983e 8ebe 043e 5d0e 283e
00000270: c2ac 123d e457 61be e710 80be 4ea7 11be
00000280: 902e b7be 9f88 b8be 6099 21be e5e1 833e
00000290: f5d0 953e 280a 6cbe 9909 8e3e 4e2e 813d
000002a0: b714 adbe ee9d ebbc fa89 94be d7fa c83e
000002b0: 8d4c a03e 6ab6 b0be 8bbf 22be 297c 813e
000002c0: b570 023f a9a8 4c3d b497 593e d0ae a4bc
000002d0: 0d2a 723e 6df6 173e 7984 24bd 0bb5 07bf
000002e0: fa46 a8bd ac90 80be 8b23 3b3d beb8 943e
000002f0: b488 92be b25c d03e ef4d 5dbd 04c0 ccbe
00000300: d491 b23c 3dc2 6f3e 1a38 5d3e 100c d03b
00000310: e503 ba3e 9f43 6e3e 6332 20be 8298 c9be
00000320: d09a 143f ca8a 84be 3755 a7bd 419f 9c3e
00000330: c0e4 bf3e c3c0 acbd 94b7 99be da5b 903d
00000340: b475 523e f367 8ebe 5cc0 df3d f407 9f3d
00000350: 7b45 043f cb56 a7bd 99b6 2bbe 3d58 f9be
00000360: 917b 27be ff82 90be c645 80be 882f f73d
00000370: c3dc f63c 981e 95be 71ba 89bc 0428 893e
00000380: 9410 0ebe 7274 f3bd 5181 e63d e056 493e
00000390: 0f4f 053e e314 c43d 2f08 b03c fbb8 4d3e
000003a0: 539e 1b3e 7989 583e 8f05 0ebe 5e73 253e
000003b0: f219 1f3e 5363 aebe 714a a2be f3b5 0f3e
000003c0: 65e8 ad3e 3b67 433e cccd 1cbe e84f 2a3e
000003d0: aaac aa3e bc06 3e3e 32f8 83be bbef 8b3e
000003e0: 0c5d 933e e8eb bfbe 33a1 ce3e ab46 d7bd
000003f0: 8409 54be c165 8dbb 167d e03d 2c7d 633d

onnx::Conv_84 f4 [64]
0.43875188 -0.44898826 -0.8668046 -0.42660785 0.6692611 0.0960401 -0.20469593 -0.5198001
-0.12848756 0.0734596 -0.30961823 0.7857779 -0.8384897 0.109347746 -0.7129181 -0.42510155
0.04186425 0.5495715 0.22654374 0.30153257 0.22710237 0.3564509 -0.2471278 -1.106221
0.1190398 -0.24924247 -0.25877768 0.16113997 -0.5971935 -0.18717742 -0.068856806 -0.25733086
0.4453053 0.20340791 -1.0578076 0.87432075 0.21416077 -0.86026895 -0.14704102 -1.0539602
-0.22119752 0.39240658 -0.08181065 -0.69621116 0.5999074 0.12991391 -1.3093117 0.5512023
0.10390884 -0.3241803 -0.42968023 -0.5752245 0.54370403 -0.1412009 0.46220672 -0.6369404
-0.30077446 -0.58932024 0.09937941 0.7623211 -0.050538126 0.013388681 0.497433 0.13017616
00000000: 16a4 e03e cae1 e5be e8e6 5dbf 586c dabe
00000010: b254 2b3f acb0 c43d cf9b 51be 9f11 05bf
00000020: 3e92 03be fd71 963d 4886 9ebe be28 493f
00000030: 43a7 56bf b6f1 df3d cd81 36bf e9a6 d9be
00000040: d979 2b3d b8b0 0c3f 15fb 673e 7a62 9a3e
00000050: 868d 683e bb80 b63e 120f 7dbe a698 8dbf
00000060: 23cb f33d 6b39 7fbe 827e 84be e001 253e
00000070: ace1 18bf 70ab 3fbe cc04 8dbd dfc0 83be
00000080: 0eff e33e 2a4a 503e 3d66 87bf 7cd3 5f3f
00000090: f64c 5b3e 963a 5cbf ec91 16be 2be8 86bf
000000a0: 9a81 62be 84e9 c83e 588c a7bd e53a 32bf
000000b0: 8893 193f 2708 053e 8797 a7bf 981b 0d3f
000000c0: 28ce d43d f6fa a5be 0cff dbbe ea41 13bf
000000d0: 3030 0b3f f896 10be 5ca6 ec3e 870e 23bf
000000e0: 1cff 99be b1dd 16bf 6f87 cb3d 7a27 433f
000000f0: 1101 4fbd 335c 5b3c 8aaf fe3e e64c 053e

onnx::Conv_86 f4 [64, 1, 3, 3]
-0.44742703 0.57349104 -0.63600326 -0.6552598 -0.23661152 0.6697188 1.0800927 -0.32278737
-0.87292933 -0.6799467 0.21987082 0.16919866 -0.7759894 -0.7833981 0.21158168 -0.3980772
0.5269295 0.69228595 -0.21322931 0.5699989 0.45979002 0.026218046 0.42118075 0.5529531
0.44342044 0.3658609 0.1727695 0.6813537 0.4671012 0.19791827 0.2582088 0.30345696
-0.24801421 -0.10334184 -0.6239322 0.6624113 0.53930813 0.889364 -0.03541502 -1.4067689
-0.29169914 -0.17817955 -0.86994797 -1.2319046 -0.13785072 0.53511775 0.40761277 0.58500206
0.49665582 -0.17175087 -0.56307966 -0.5992528 -0.24648261 0.5272585 -0.48556325 1.0287125
-0.19070444 -0.64439183 -0.49021557 -0.5200006 -0.099537976 0.49541914 0.33527207 0.6270637
-0.5918244 -0.713359 -0.26781157 -0.38634256 -0.031806383 -0.6400509 -0.5399421 -0.4069118
0.5244916 -0.17639977 -0.7367087 -0.65627724 -0.47632387 -0.40570125 0.6746477 0.56637776
0.2302593 0.049151734 0.59526956 -0.41044343 0.9599108 -1.0227512 0.43703696 0.4136854
0.79563415 -0.17543095 0.9218324 0.62499195 -0.46865502 -0.3563393 -0.56763613 0.7966594
-0.16219251 -0.0044933925 -0.15818986 0.06411112 -0.31062105 0.3126372 -0.9894305 -0.59304625
-1.1697134 -0.2788109 -0.7841162 0.5359858 -0.6415644 -0.6001191 -0.35104513 -0.34412962
0.07893064 -0.5790437 0.55615443 -0.45520157 -0.06448269 -0.4103739 -0.91275835 -1.0218217
0.21618344 -0.030922035 0.24425809 -1.2782118 -0.38232005 -1.2435747 -0.13597234 0.1778977
0.33354086 -0.428036 -0.74130875 0.11239448 0.5914715 -0.6803014 0.47708344 -0.122072704
-0.09520974 0.41860974 0.37978753 0.29618424 0.49864835 -0.45984972 0.4453727 0.70354575
-0.093689345 0.14585844 -0.79571676 1.0723143 0.6835648 0.18458281 -0.099535204 -0.9322354
0.67886835 0.41665304 0.55029804 -1.0156003 0.41145587 -1.060537 0.7247397 -0.39488572
-0.6370844 -0.8995111 -0.6296735 -0.5616983 0.12406472 -0.30452728 -0.05592938 -0.7327952
-0.54237956 0.69693184 0.66338575 -0.6080947 -0.6485757 0.23730542 -0.7090601 -0.6643153
-0.12118095 -0.066204496 -0.40636536 -0.74584997 0.42824683 -0.7524276 1.4482112 0.59438884
0.9199431 -0.2492476 0.73500454 -1.1480703 -0.79079914 0.58273506 -0.74605304 -0.5517359
0.634205 0.742521 0.78924525 -0.67164767 0.043742955 -0.7626424 0.7545769 0.51007724
0.6235647 0.62497413 -0.52536196 -0.3445457 0.41401818 -0.41328484 0.052021477 0.6663097
0.6831349 -0.52454 0.2878302 0.9001288 0.16502784 -0.27229977 -0.1269213 0.989493
0.45036325 -0.11939157 0.65260696 -0.25846267 -0.58157355 -0.16727717 -0.7704732 0.49018037
0.65228677 -0.2953891 0.48715585 0.47762024 -0.18688756 0.057622883 -0.9230087 -0.6235648
-0.6007406 -0.23450981 1.0230513 -0.082219146 -0.19719641 -0.36161968 -0.3069745 -0.49303484
0.4856091 0.06540734 0.4111895 0.46875376 -0.32196635 -0.5479927 0.06175618 -0.5962703
-0.42446205 -0.67035043 0.60459036 0.76259804 -0.302176 0.8451174 0.3350881 -0.20020863
00000000: 2815 e5be 4fd0 123f 1cd1 22bf 1bbf 27bf
00000010: 4a4a 72be b172 2b3f 7a40 8a3f 6344 a5be
00000020: 4c78 5fbf fd10 2ebf d125 613e 6a42 2d3e
00000030: 3ea7 46bf c78c 48bf dea8 583e c6d0 cbbe
00000040: dae4 063f a739 313f c958 5abe 73eb 113f
00000050: 9969 eb3e 3ac7 d63c 01a5 d73e 568e 0d3f
00000060: 0108 e33e 1f52 bb3e 7dea 303e 326d 2e3f
00000070: e327 ef3e 16ab 4a3e f233 843e b65e 9b3e
00000080: 70f7 7dbe e3a4 d3bd 05ba 1fbf c993 293f
00000090: 1910 0a3f 5cad 633f 570f 11bd 0111 b4bf
000000a0: 9759 95be b374 36be e9b4 5ebf 0daf 9dbf
000000b0: bd28 0dbe 7afd 083f 9fb2 d03e b2c2 153f
000000c0: ac49 fe3e 76df 2fbe fd25 10bf a268 19bf
000000d0: f065 7cbe 6afa 063f bf9b f8be daac 833f
000000e0: 0648 43be ddf6 24bf 89fd fabe c21e 05bf
000000f0: 91da cbbd 94a7 fd3e c8a8 ab3e 3f87 203f
00000100: ce81 17bf b29e 36bf 991e 89be b1ce c5be
00000110: 6947 02bd 60da 23bf a539 0abf be56 d0be
00000120: 1545 063f 24a2 34be f198 3cbf c901 28bf
00000130: b9e0 f3be 13b8 cfbe b6b5 2c3f 22fe 103f
00000140: 18c9 6b3e 5453 493d 9663 183f a425 d2be
00000150: b7bc 753f 83e9 82bf 4fc3 df3e 93ce d33e
00000160: aeae 4b3f 2ca4 33be 35fd 6b3f 79ff 1f3f
00000170: 8df3 efbe 1b72 b6be 9a50 11bf dff1 4b3f
00000180: cb15 26be 4f3d 93bb 86fc 21be b14c 833d
00000190: b909 9fbe fc11 a03e 514b 7dbf e1d1 17bf
000001a0: 2bb9 95bf 4dc0 8ebe d7bb 48bf 5e36 093f
000001b0: 913d 24bf 68a1 19bf 30bc b3be c231 b0be
000001c0: 63a6 a13d 353c 14bf 2360 0e3f 2e10 e9be
000001d0: 800f 84bd 871c d2be 88aa 69bf 0ecb 82bf
000001e0: 315f 5d3e 3550 fdbc cb1e 7a3e 729c a3bf
000001f0: 74bf c3be 752d 9fbf 553c 0bbe d12a 363e
00000200: dec5 aa3e 8927 dbbe 69c6 3dbf 142f e63d
00000210: ad6a 173f 3c28 2ebf 4844 f43e 4101 fabd
00000220: 53fd c2bd 0454 d63e 8373 c23e 76a5 973e
00000230: d64e ff3e 6c71 ebbe e407 e43e 931b 343f
00000240: 33e0 bfbd ea5b 153e 18b4 4bbf 9841 893f
00000250: 1afe 2e3f 4703 3d3e 1dd9 cbbd fba6 6ebf
00000260: 51ca 2d3f 8c53 d53e 55e0 0c3f 31ff 81bf
00000270: 58aa d23e adbf 87bf 8a88 393f 762e cabe
00000280: f717 23bf 5c46 66bf 4832 21bf 76cb 0fbf
00000290: a515 fe3d 00eb 9bbe 3516 65bd 7798 3bbf
000002a0: 63d9 0abf 206a 323f a6d3 293f 18ac 1bbf
000002b0: 0f09 26bf 3100 733e f684 35bf 9110 2abf
000002c0: b82d f8bd 3996 87bd 1f0f d0be 06f0 3ebf
000002d0: 2b43 db3e 189f 40bf fc5e b93f de29 183f
000002e0: 6481 6b3f c33a 7fbe 4229 3c3f f8f3 92bf
000002f0: d071 4abf 202e 153f 55fd 3ebf 903e 0dbf
00000300: 425b 223f db15 3e3f fa0b 4a3f 1af1 2bbf
00000310: d02b 333d 883c 43bf f42b 413f 6c94 023f
00000320: f0a1 1f3f 4efe 1f3f 1f7e 06bf 4b68 b0be
00000330: 31fa d33e 129a d3be 7914 553d 4693 2a3f
00000340: eee1 2e3f 4148 06bf 7b5e 933e d76e 663f
00000350: 0ffd 283e e06a 8bbe a8f7 01be 6a4f 7d3f
00000360: 0396 e63e 9183 f4bd 4011 273f 3855 84be
00000370: 01e2 14bf b54a 2bbe bb3d 45bf ecf8 fa3e
00000380: 44fc 263f 3d3d 97be 7e6c f93e a48a f43e
00000390: 745f 3fbe f905 6c3d 4c4a 6cbf f1a1 1fbf
000003a0: 23ca 19bf 5723 70be 58f3 823f 8362 a8bd
000003b0: dbed 49be 3726 b9be c32b 9dbe 106f fcbe
000003c0: c2a1 f83e 49f4 853d 6e87 d23e 7e00 f03e
000003d0: c6d8 a4be 4049 0cbf 0cf4 7c3d 2ca5 18bf
000003e0: 1753 d9be 169c 2bbf 6fc6 1a3f a039 433f
000003f0: d0b6 9abe 9d59 583f ab90 ab3e 7e03 4dbe

onnx::Conv_87 f4 [64]
0.19892803 0.06497334 -0.90434366 -0.3973017 0.9095424 -0.30701846 0.123076454 1.1535851
0.016988887 -0.24378753 -0.20703772 1.0563926 0.6409787 1.5863043 -0.005676642 -0.7441694
-0.24685857 0.70003104 0.208951 1.0647128 -0.26303506 0.085001 -0.17190802 -0.92972106
-0.03664933 0.81639373 -0.032119513 0.08631043 0.02438513 0.32909957 -0.011880465 -0.7241949
1.0894123 -0.78798217 -0.6234503 1.0753124 -0.1326862 -0.52471495 0.1902788 0.49547178
1.0713103 -0.35957867 -0.64553547 0.77749145 -0.35007384 -0.5014751 -0.8637821 1.7847955
-0.4376351 -0.8124194 -0.9050228 1.0062453 -0.48496088 0.006693311 -0.44992888 -0.19448519
-0.00060453266 0.29695973 -0.004390858 -1.177368 -0.48929623 0.2875328 -0.25738016 0.2799661
00000000: cab3 4b3e be10 853d 1183 67bf 216b cbbe
00000010: c5d7 683f 8631 9dbe 820f fc3d ada8 933f
00000020: 472c 8b3c 70a3 79be b201 54be df37 873f
00000030: 2e17 243f 050c cb3f 2003 babb e381 3ebf
00000040: 7ec8 7cbe 3c35 333f 40f7 553e 8248 883f
00000050: 88ac 86be 0115 ae3d a808 30be 3302 6ebf
00000060: 9c1d 16bd 2eff 503f c08f 03bd 86c3 b03d
00000070: 53c3 c73c bd7f a83e 48a6 42bc d664 39bf
00000080: dd71 8b3f 33b9 49bf 709a 1fbf d6a3 893f
00000090: e4de 07be b853 06bf 72d8 423e 7aae fd3e
000000a0: b220 893f b21a b8be d041 25bf ae09 473f
000000b0: e13c b3be ac60 00bf d320 5dbf 2e74 e43f
000000c0: b511 e0be b8fa 4fbf 93af 67bf a5cc 803f
000000d0: cb4c f8be 9053 db3b 145d e6be 2027 47be
000000e0: 8079 1eba 1b0b 983e 30e1 8fbb ffb3 96bf
000000f0: 0985 fabe 8037 933e 55c7 83be b757 8f3e

onnx::Conv_89 f4 [128, 64, 1, 1]
-0.1502374 -0.066771306 -0.056587253 -0.04540393 -0.1250829 -0.139105 -0.021053765 0.037754975
-0.23214051 -0.1669899 -0.151894 -0.16474633 -0.055283774 -0.29004934 -0.17793272 -0.0030671342
0.08789038 -0.09094815 0.03561801 0.27680436 -0.04914153 -0.015022273 0.021375233 -0.23767371
-0.018046742 -0.0079606045 0.017779578 -0.12598273 0.082838185 -0.0051534874 -0.07912316 0.07955287
-0.241729 -0.055273835 -0.021980114 -0.10093611 -0.18988566 0.0957087 -0.08934344 -0.1296191
0.29340252 0.17706563 0.090512104 -0.093038514 -0.12661196 -0.18163723 -0.015387131 -0.17883155
-0.078293316 -0.10466319 -0.008636172 0.07774897 0.047570333 -0.15893985 0.0033335253 -0.10812887
-0.029102942 0.05131953 0.14571501 -0.113928854 0.007411065 -0.12516382 -0.057723563 -0.16249117
-0.19057855 0.07712263 -0.038271334 -0.010616503 0.007889516 0.02099988 -0.08908841 -0.186356
0.051677704 0.15997733 -0.055684913 0.17714557 0.20797151 0.014157049 0.043047752 -0.050383683
-0.11834035 0.20491192 -0.28002012 0.04235561 0.10854472 0.19080745 0.22752862 -0.21603696
-0.14857817 -0.097454906 0.28920397 -0.20057243 0.013770419 0.16899955 0.017973434 -0.09036355
0.057928074 0.06564533 -0.11634467 -0.13814366 0.086831406 0.13750389 0.07926123 -0.024870412
-0.30534917 0.1428319 -0.02392406 -0.29756862 -0.0124469325 0.1808297 -0.14088781 0.062276244
-0.11651722 -0.21861187 -0.04605646 0.03701511 -0.07092046 0.17464915 0.0068799932 -0.042023946
-0.19718108 -0.041956775 0.078268304 0.34080467 -0.23749413 0.2421712 -0.14727102 -0.11332246
0.049029488 -0.1329872 -0.19650953 0.06430534 0.13358407 -0.053524274 -0.17815979 -0.17267698
-0.12353723 0.1945307 0.09923396 0.07426637 0.1708357 0.30650958 -0.24065857 -0.11470321
0.049089763 0.074611865 0.07639755 -0.14987068 -0.06837935 0.2670759 0.1638441 -0.09837752
-0.193574 -0.13759588 0.115112945 -0.046352834 0.09163729 0.055086527 0.04104247 -0.15676543
-0.04508409 0.19248766 -0.039397106 0.16854747 0.09125983 -0.18136688 0.04851671 -0.049101986
-0.21972656 -0.15334317 -0.009687484 -0.33330357 -0.10648977 0.10118214 0.03977191 0.11276521
0.11262296 0.057447374 -0.13183294 -0.22993045 -0.13052401 0.13490431 0.04952423 -0.07910429
0.05746276 0.0041688234 0.052512895 0.19761413 -0.14601958 -0.071466826 -0.11207106 -0.016531061
0.15058033 -0.01308102 0.18319677 0.21638939 -0.048239913 -0.030929502 -0.015009259 -0.18440893
0.22669621 0.039440956 0.122912444 0.0066654277 0.040257126 -0.106349654 0.09372694 0.15425253
0.093134314 -0.022125943 0.071602196 0.112415485 0.14744626 -0.13937905 -0.17030877 0.14698038
0.1716301 0.110722385 -0.12719151 0.07865452 -0.07471276 -0.018989624 0.2134367 0.2108
-0.1342871 -0.24429743 -0.075259596 0.14336942 -0.049535718 -0.0035799919 -0.03903863 -0.18024175
-0.08065308 0.117690146 -0.046156295 -0.095781654 0.02226146 0.11972952 -0.069614716 -0.06331004
0.12551607 0.21782166 0.008558491 0.13015965 0.19656765 -0.006643747 0.21201372 -0.13150777
0.06302183 -0.07995391 -0.07216131 0.002185707 0.1864315 0.06953886 0.14173964 -0.1296064
00000000: d5d7 19be 65bf 88bd 09c8 67bd 79f9 39bd
00000010: bb15 00be 8b71 0ebe f278 acbc f6a4 1a3d
00000020: 3eb6 6dbe 66ff 2abe 1a8a 1bbe 43b3 28be
00000030: 3d71 62bd 5981 94be ff33 36be f901 49bb
00000040: dfff b33d 0643 babd 31e4 113d 4db9 8d3e
00000050: a148 49bd fb1f 76bc 1d1b af3c bd60 73be
00000060: c3d6 93bc 326d 02bc 7aa6 913c 9e01 01be
00000070: 11a7 a93d 96de a8bb 530b a2bd 9dec a23d
00000080: cf87 77be d166 62bd a40f b4bc 97b7 cebd
00000090: 6371 42be ec02 c43d b2f9 b6bd dfba 04be
000000a0: db38 963e b150 353e 695e b93d fa8a bebd
000000b0: 91a6 01be 1cff 39be 4e1a 7cbc 9e1f 37be
000000c0: 3f58 a0bd a859 d6bd bb7e 0dbc da3a 9f3d
000000d0: 1cd9 423d 21c1 22be 4677 5a3b ab72 ddbd
000000e0: 4b69 eebc 6d34 523d 5136 153e 8853 e9bd
000000f0: 85d8 f23b f22a 00be 8b6f 6cbd 1664 26be
00000100: 0627 43be 78f2 9d3d 67c2 1cbd d7f0 2dbc
00000110: 0743 013c f107 ac3c fc73 b6bd 1bd4 3ebe
00000120: 00ac 533d 19d1 233e dd15 64bd a665 353e
00000130: 7cf6 543e f8f2 673c d752 303d 1f5f 4ebd
00000140: 6d5c f2bd 6ed4 513e cc5e 8fbe 137d 2d3d
00000150: b24c de3d 0763 433e 43fd 683e cb38 5dbe
00000160: e024 18be 7096 c7bd 8b12 943e dc62 4dbe
00000170: 539d 613c 380e 2d3e 063d 933c 8610 b9bd
00000180: fd45 6d3d 0f71 863d 1d46 eebd 8875 0dbe
00000190: aad4 b13d d2cd 0c3e b653 a23d 09bd cbbc
000001a0: ba56 9cbe 8742 123e 64fc c3bc ea5a 98be
000001b0: 38ee 4bbc 6c2b 393e e544 10be 6015 7f3d
000001c0: 95a0 eebd cadb 5fbe b3a5 3cbd 289d 173d
000001d0: bf3e 91bd 3ad7 323e 9171 e13b 4d21 2cbd
000001e0: d6e9 49be deda 2bbd 224b a03d f37d ae3e
000001f0: a931 73be bafb 773e 37ce 16be 9b15 e8bd
00000200: 25d3 483d cc2d 08be cb39 49be 85b2 833d
00000210: 43ca 083e 453c 5bbd 856f 36be 3cd2 30be
00000220: 1601 fdbd 0e33 473e 2d3b cb3d f718 983d
00000230: 8eef 2e3e d3ee 9c3e 336f 76be 84e9 eabd
00000240: 5912 493d 1bce 983d 5276 9c3d b377 19be
00000250: 790a 8cbd 2cbe 883e bfc6 273e 277a c9bd
00000260: 4338 46be efe5 0cbe 56c0 eb3d 78dc 3dbd
00000270: 55ac bb3d 69a2 613d 261c 283d 1e87 20be
00000280: 18aa 38bd 7c1b 453e dc5e 21bd b597 2c3e
00000290: 6fe6 ba3d 3db8 39be 75b9 463d 2a1f 49bd
000002a0: 0000 61be fe05 1dbe 41b8 1ebc c4a6 aabe
000002b0: 4f17 dabd 9538 cf3d dfe7 223d 72f1 e63d
000002c0: dea6 e63d f04d 6b3d 37ff 06be e372 6bbe
000002d0: 16a8 05be 5b24 0a3e ebd9 4a3d 6e01 a2bd
000002e0: 125e 6b3d a09a 883b c317 573d 5c5b 4a3e
000002f0: 2886 15be 335d 92bd 8385 e5bd 266c 87bc
00000300: bb31 1a3e c651 56bc ef97 3b3e 2e95 5d3e
00000310: 3797 45bd de5f fdbc 65e9 75bc b2d5 3cbe
00000320: 0d23 683e d78c 213d 85b9 fb3d a969 da3b
00000330: a8e4 243d d9cd d9bd e9f3 bf3d 60f4 1d3e
00000340: 34bd be3d 7741 b5bc 2ca4 923d 173a e63d
00000350: 27fc 163e 62b9 0ebe 6c65 2ebe 0682 163e
00000360: cdbf 2f3e 6bc2 e23d 7e3e 02be 9f15 a13d
00000370: 0103 99bd 2190 9bbc 268f 5a3e f5db 573e
00000380: 8f82 09be 1b29 7abe b421 9abd 6fcf 123e
00000390: f7e5 4abd 4c9e 6abb f8e6 1fbd 4b91 38be
000003a0: 712d a5bd 8807 f13d 620e 3dbd 2c29 c4bd
000003b0: aa5d b63c c034 f53d 2992 8ebd b2a8 81bd
000003c0: 4987 003e a40c 5f3e ea38 0c3c 9248 053e
000003d0: 0849 493e cab3 d9bb 201a 593e f9a9 06be
000003e0: 9711 813d e0be a3bd 4fc9 93bd 143e 0f3b
000003f0: e6e7 3e3e 646a 8e3d 3224 113e 8ab7 04be
